{
  "nodes": [
    {
      "op": "null", 
      "name": "fbrnn3_begin_state_h", 
      "attr": {
        "__layout__": "NCHW", 
        "__shape__": "(2, 192, 16, 16)"
      }, 
      "inputs": []
    }, 
    {
      "op": "SliceChannel", 
      "name": "split20", 
      "attr": {
        "axis": "1", 
        "num_outputs": "1"
      }, 
      "inputs": [[0, 0, 0]]
    }, 
    {
      "op": "null", 
      "name": "fbrnn3_0_h2f_conv1_weight", 
      "attr": {"__lr_mult__": "1.0"}, 
      "inputs": []
    }, 
    {
      "op": "null", 
      "name": "fbrnn3_0_h2f_conv1_bias", 
      "attr": {"__lr_mult__": "1.0"}, 
      "inputs": []
    }, 
    {
      "op": "Convolution", 
      "name": "fbrnn3_0__t0_h2f_conv1", 
      "attr": {
        "dilate": "(1, 1)", 
        "kernel": "(5, 5)", 
        "num_filter": "32", 
        "pad": "(2, 2)"
      }, 
      "inputs": [[1, 0, 0], [2, 0, 0], [3, 0, 0]]
    }, 
    {
      "op": "LeakyReLU", 
      "name": "leakyrelu15", 
      "attr": {"slope": "0.2"}, 
      "inputs": [[4, 0, 0]]
    }, 
    {
      "op": "null", 
      "name": "fbrnn3_0_f_out_weight", 
      "attr": {
        "__init__": "[\"zero\", {}]", 
        "__lr_mult__": "1.0"
      }, 
      "inputs": []
    }, 
    {
      "op": "null", 
      "name": "fbrnn3_0_f_out_bias", 
      "attr": {
        "__init__": "[\"zero\", {}]", 
        "__lr_mult__": "1.0"
      }, 
      "inputs": []
    }, 
    {
      "op": "Convolution", 
      "name": "convolution15", 
      "attr": {
        "kernel": "(5, 5)", 
        "num_filter": "18", 
        "pad": "(2, 2)"
      }, 
      "inputs": [[5, 0, 0], [6, 0, 0], [7, 0, 0]]
    }, 
    {
      "op": "SliceChannel", 
      "name": "split21", 
      "attr": {
        "axis": "1", 
        "num_outputs": "9"
      }, 
      "inputs": [[8, 0, 0]]
    }, 
    {
      "op": "_mul_scalar", 
      "name": "_mulscalar179", 
      "attr": {"scalar": "-1.0"}, 
      "inputs": [[9, 0, 0]]
    }, 
    {
      "op": "GridGenerator", 
      "name": "gridgenerator175", 
      "attr": {"transform_type": "warp"}, 
      "inputs": [[10, 0, 0]]
    }, 
    {
      "op": "BilinearSampler", 
      "name": "bilinearsampler175", 
      "inputs": [[1, 0, 0], [11, 0, 0]]
    }, 
    {
      "op": "_mul_scalar", 
      "name": "_mulscalar180", 
      "attr": {"scalar": "-1.0"}, 
      "inputs": [[9, 1, 0]]
    }, 
    {
      "op": "GridGenerator", 
      "name": "gridgenerator176", 
      "attr": {"transform_type": "warp"}, 
      "inputs": [[13, 0, 0]]
    }, 
    {
      "op": "BilinearSampler", 
      "name": "bilinearsampler176", 
      "inputs": [[1, 0, 0], [14, 0, 0]]
    }, 
    {
      "op": "_mul_scalar", 
      "name": "_mulscalar181", 
      "attr": {"scalar": "-1.0"}, 
      "inputs": [[9, 2, 0]]
    }, 
    {
      "op": "GridGenerator", 
      "name": "gridgenerator177", 
      "attr": {"transform_type": "warp"}, 
      "inputs": [[16, 0, 0]]
    }, 
    {
      "op": "BilinearSampler", 
      "name": "bilinearsampler177", 
      "inputs": [[1, 0, 0], [17, 0, 0]]
    }, 
    {
      "op": "_mul_scalar", 
      "name": "_mulscalar182", 
      "attr": {"scalar": "-1.0"}, 
      "inputs": [[9, 3, 0]]
    }, 
    {
      "op": "GridGenerator", 
      "name": "gridgenerator178", 
      "attr": {"transform_type": "warp"}, 
      "inputs": [[19, 0, 0]]
    }, 
    {
      "op": "BilinearSampler", 
      "name": "bilinearsampler178", 
      "inputs": [[1, 0, 0], [20, 0, 0]]
    }, 
    {
      "op": "_mul_scalar", 
      "name": "_mulscalar183", 
      "attr": {"scalar": "-1.0"}, 
      "inputs": [[9, 4, 0]]
    }, 
    {
      "op": "GridGenerator", 
      "name": "gridgenerator179", 
      "attr": {"transform_type": "warp"}, 
      "inputs": [[22, 0, 0]]
    }, 
    {
      "op": "BilinearSampler", 
      "name": "bilinearsampler179", 
      "inputs": [[1, 0, 0], [23, 0, 0]]
    }, 
    {
      "op": "_mul_scalar", 
      "name": "_mulscalar184", 
      "attr": {"scalar": "-1.0"}, 
      "inputs": [[9, 5, 0]]
    }, 
    {
      "op": "GridGenerator", 
      "name": "gridgenerator180", 
      "attr": {"transform_type": "warp"}, 
      "inputs": [[25, 0, 0]]
    }, 
    {
      "op": "BilinearSampler", 
      "name": "bilinearsampler180", 
      "inputs": [[1, 0, 0], [26, 0, 0]]
    }, 
    {
      "op": "_mul_scalar", 
      "name": "_mulscalar185", 
      "attr": {"scalar": "-1.0"}, 
      "inputs": [[9, 6, 0]]
    }, 
    {
      "op": "GridGenerator", 
      "name": "gridgenerator181", 
      "attr": {"transform_type": "warp"}, 
      "inputs": [[28, 0, 0]]
    }, 
    {
      "op": "BilinearSampler", 
      "name": "bilinearsampler181", 
      "inputs": [[1, 0, 0], [29, 0, 0]]
    }, 
    {
      "op": "_mul_scalar", 
      "name": "_mulscalar186", 
      "attr": {"scalar": "-1.0"}, 
      "inputs": [[9, 7, 0]]
    }, 
    {
      "op": "GridGenerator", 
      "name": "gridgenerator182", 
      "attr": {"transform_type": "warp"}, 
      "inputs": [[31, 0, 0]]
    }, 
    {
      "op": "BilinearSampler", 
      "name": "bilinearsampler182", 
      "inputs": [[1, 0, 0], [32, 0, 0]]
    }, 
    {
      "op": "_mul_scalar", 
      "name": "_mulscalar187", 
      "attr": {"scalar": "-1.0"}, 
      "inputs": [[9, 8, 0]]
    }, 
    {
      "op": "GridGenerator", 
      "name": "gridgenerator183", 
      "attr": {"transform_type": "warp"}, 
      "inputs": [[34, 0, 0]]
    }, 
    {
      "op": "BilinearSampler", 
      "name": "bilinearsampler183", 
      "inputs": [[1, 0, 0], [35, 0, 0]]
    }, 
    {
      "op": "Concat", 
      "name": "concat23", 
      "attr": {
        "dim": "1", 
        "num_args": "9"
      }, 
      "inputs": [[12, 0, 0], [15, 0, 0], [18, 0, 0], [21, 0, 0], [24, 0, 0], [27, 0, 0], [30, 0, 0], [33, 0, 0], [36, 0, 0]]
    }, 
    {
      "op": "null", 
      "name": "fbrnn3_0_h2h_weight", 
      "attr": {"__lr_mult__": "1.0"}, 
      "inputs": []
    }, 
    {
      "op": "null", 
      "name": "fbrnn3_0_h2h_bias", 
      "attr": {"__lr_mult__": "1.0"}, 
      "inputs": []
    }, 
    {
      "op": "Convolution", 
      "name": "fbrnn3_0__t0_h2h", 
      "attr": {
        "kernel": "(1, 1)", 
        "num_filter": "576"
      }, 
      "inputs": [[37, 0, 0], [38, 0, 0], [39, 0, 0]]
    }, 
    {
      "op": "SliceChannel", 
      "name": "slicechannel33", 
      "attr": {
        "axis": "1", 
        "num_outputs": "3"
      }, 
      "inputs": [[40, 0, 0]]
    }, 
    {
      "op": "Activation", 
      "name": "fbrnn3_0__t0_u", 
      "attr": {"act_type": "sigmoid"}, 
      "inputs": [[41, 1, 0]]
    }, 
    {
      "op": "elemwise_mul", 
      "name": "_mul46", 
      "inputs": [[42, 0, 0], [1, 0, 0]]
    }, 
    {
      "op": "_rminus_scalar", 
      "name": "_rminusscalar15", 
      "attr": {"scalar": "1"}, 
      "inputs": [[42, 0, 0]]
    }, 
    {
      "op": "Activation", 
      "name": "fbrnn3_0__t0_r", 
      "attr": {"act_type": "sigmoid"}, 
      "inputs": [[41, 0, 0]]
    }, 
    {
      "op": "elemwise_mul", 
      "name": "_mul45", 
      "inputs": [[45, 0, 0], [41, 2, 0]]
    }, 
    {
      "op": "LeakyReLU", 
      "name": "fbrnn3_0__t0_h_leaky", 
      "attr": {"slope": "0.2"}, 
      "inputs": [[46, 0, 0]]
    }, 
    {
      "op": "elemwise_mul", 
      "name": "_mul47", 
      "inputs": [[44, 0, 0], [47, 0, 0]]
    }, 
    {
      "op": "elemwise_add", 
      "name": "_plus75", 
      "inputs": [[43, 0, 0], [48, 0, 0]]
    }, 
    {
      "op": "Convolution", 
      "name": "fbrnn3_0__t1_h2f_conv1", 
      "attr": {
        "dilate": "(1, 1)", 
        "kernel": "(5, 5)", 
        "num_filter": "32", 
        "pad": "(2, 2)"
      }, 
      "inputs": [[49, 0, 0], [2, 0, 0], [3, 0, 0]]
    }, 
    {
      "op": "LeakyReLU", 
      "name": "leakyrelu16", 
      "attr": {"slope": "0.2"}, 
      "inputs": [[50, 0, 0]]
    }, 
    {
      "op": "Convolution", 
      "name": "convolution16", 
      "attr": {
        "kernel": "(5, 5)", 
        "num_filter": "18", 
        "pad": "(2, 2)"
      }, 
      "inputs": [[51, 0, 0], [6, 0, 0], [7, 0, 0]]
    }, 
    {
      "op": "SliceChannel", 
      "name": "split22", 
      "attr": {
        "axis": "1", 
        "num_outputs": "9"
      }, 
      "inputs": [[52, 0, 0]]
    }, 
    {
      "op": "_mul_scalar", 
      "name": "_mulscalar188", 
      "attr": {"scalar": "-1.0"}, 
      "inputs": [[53, 0, 0]]
    }, 
    {
      "op": "GridGenerator", 
      "name": "gridgenerator184", 
      "attr": {"transform_type": "warp"}, 
      "inputs": [[54, 0, 0]]
    }, 
    {
      "op": "BilinearSampler", 
      "name": "bilinearsampler184", 
      "inputs": [[49, 0, 0], [55, 0, 0]]
    }, 
    {
      "op": "_mul_scalar", 
      "name": "_mulscalar189", 
      "attr": {"scalar": "-1.0"}, 
      "inputs": [[53, 1, 0]]
    }, 
    {
      "op": "GridGenerator", 
      "name": "gridgenerator185", 
      "attr": {"transform_type": "warp"}, 
      "inputs": [[57, 0, 0]]
    }, 
    {
      "op": "BilinearSampler", 
      "name": "bilinearsampler185", 
      "inputs": [[49, 0, 0], [58, 0, 0]]
    }, 
    {
      "op": "_mul_scalar", 
      "name": "_mulscalar190", 
      "attr": {"scalar": "-1.0"}, 
      "inputs": [[53, 2, 0]]
    }, 
    {
      "op": "GridGenerator", 
      "name": "gridgenerator186", 
      "attr": {"transform_type": "warp"}, 
      "inputs": [[60, 0, 0]]
    }, 
    {
      "op": "BilinearSampler", 
      "name": "bilinearsampler186", 
      "inputs": [[49, 0, 0], [61, 0, 0]]
    }, 
    {
      "op": "_mul_scalar", 
      "name": "_mulscalar191", 
      "attr": {"scalar": "-1.0"}, 
      "inputs": [[53, 3, 0]]
    }, 
    {
      "op": "GridGenerator", 
      "name": "gridgenerator187", 
      "attr": {"transform_type": "warp"}, 
      "inputs": [[63, 0, 0]]
    }, 
    {
      "op": "BilinearSampler", 
      "name": "bilinearsampler187", 
      "inputs": [[49, 0, 0], [64, 0, 0]]
    }, 
    {
      "op": "_mul_scalar", 
      "name": "_mulscalar192", 
      "attr": {"scalar": "-1.0"}, 
      "inputs": [[53, 4, 0]]
    }, 
    {
      "op": "GridGenerator", 
      "name": "gridgenerator188", 
      "attr": {"transform_type": "warp"}, 
      "inputs": [[66, 0, 0]]
    }, 
    {
      "op": "BilinearSampler", 
      "name": "bilinearsampler188", 
      "inputs": [[49, 0, 0], [67, 0, 0]]
    }, 
    {
      "op": "_mul_scalar", 
      "name": "_mulscalar193", 
      "attr": {"scalar": "-1.0"}, 
      "inputs": [[53, 5, 0]]
    }, 
    {
      "op": "GridGenerator", 
      "name": "gridgenerator189", 
      "attr": {"transform_type": "warp"}, 
      "inputs": [[69, 0, 0]]
    }, 
    {
      "op": "BilinearSampler", 
      "name": "bilinearsampler189", 
      "inputs": [[49, 0, 0], [70, 0, 0]]
    }, 
    {
      "op": "_mul_scalar", 
      "name": "_mulscalar194", 
      "attr": {"scalar": "-1.0"}, 
      "inputs": [[53, 6, 0]]
    }, 
    {
      "op": "GridGenerator", 
      "name": "gridgenerator190", 
      "attr": {"transform_type": "warp"}, 
      "inputs": [[72, 0, 0]]
    }, 
    {
      "op": "BilinearSampler", 
      "name": "bilinearsampler190", 
      "inputs": [[49, 0, 0], [73, 0, 0]]
    }, 
    {
      "op": "_mul_scalar", 
      "name": "_mulscalar195", 
      "attr": {"scalar": "-1.0"}, 
      "inputs": [[53, 7, 0]]
    }, 
    {
      "op": "GridGenerator", 
      "name": "gridgenerator191", 
      "attr": {"transform_type": "warp"}, 
      "inputs": [[75, 0, 0]]
    }, 
    {
      "op": "BilinearSampler", 
      "name": "bilinearsampler191", 
      "inputs": [[49, 0, 0], [76, 0, 0]]
    }, 
    {
      "op": "_mul_scalar", 
      "name": "_mulscalar196", 
      "attr": {"scalar": "-1.0"}, 
      "inputs": [[53, 8, 0]]
    }, 
    {
      "op": "GridGenerator", 
      "name": "gridgenerator192", 
      "attr": {"transform_type": "warp"}, 
      "inputs": [[78, 0, 0]]
    }, 
    {
      "op": "BilinearSampler", 
      "name": "bilinearsampler192", 
      "inputs": [[49, 0, 0], [79, 0, 0]]
    }, 
    {
      "op": "Concat", 
      "name": "concat24", 
      "attr": {
        "dim": "1", 
        "num_args": "9"
      }, 
      "inputs": [[56, 0, 0], [59, 0, 0], [62, 0, 0], [65, 0, 0], [68, 0, 0], [71, 0, 0], [74, 0, 0], [77, 0, 0], [80, 0, 0]]
    }, 
    {
      "op": "Convolution", 
      "name": "fbrnn3_0__t1_h2h", 
      "attr": {
        "kernel": "(1, 1)", 
        "num_filter": "576"
      }, 
      "inputs": [[81, 0, 0], [38, 0, 0], [39, 0, 0]]
    }, 
    {
      "op": "SliceChannel", 
      "name": "slicechannel34", 
      "attr": {
        "axis": "1", 
        "num_outputs": "3"
      }, 
      "inputs": [[82, 0, 0]]
    }, 
    {
      "op": "Activation", 
      "name": "fbrnn3_0__t1_u", 
      "attr": {"act_type": "sigmoid"}, 
      "inputs": [[83, 1, 0]]
    }, 
    {
      "op": "elemwise_mul", 
      "name": "_mul49", 
      "inputs": [[84, 0, 0], [49, 0, 0]]
    }, 
    {
      "op": "_rminus_scalar", 
      "name": "_rminusscalar16", 
      "attr": {"scalar": "1"}, 
      "inputs": [[84, 0, 0]]
    }, 
    {
      "op": "Activation", 
      "name": "fbrnn3_0__t1_r", 
      "attr": {"act_type": "sigmoid"}, 
      "inputs": [[83, 0, 0]]
    }, 
    {
      "op": "elemwise_mul", 
      "name": "_mul48", 
      "inputs": [[87, 0, 0], [83, 2, 0]]
    }, 
    {
      "op": "LeakyReLU", 
      "name": "fbrnn3_0__t1_h_leaky", 
      "attr": {"slope": "0.2"}, 
      "inputs": [[88, 0, 0]]
    }, 
    {
      "op": "elemwise_mul", 
      "name": "_mul50", 
      "inputs": [[86, 0, 0], [89, 0, 0]]
    }, 
    {
      "op": "elemwise_add", 
      "name": "_plus76", 
      "inputs": [[85, 0, 0], [90, 0, 0]]
    }, 
    {
      "op": "Convolution", 
      "name": "fbrnn3_0__t2_h2f_conv1", 
      "attr": {
        "dilate": "(1, 1)", 
        "kernel": "(5, 5)", 
        "num_filter": "32", 
        "pad": "(2, 2)"
      }, 
      "inputs": [[91, 0, 0], [2, 0, 0], [3, 0, 0]]
    }, 
    {
      "op": "LeakyReLU", 
      "name": "leakyrelu17", 
      "attr": {"slope": "0.2"}, 
      "inputs": [[92, 0, 0]]
    }, 
    {
      "op": "Convolution", 
      "name": "convolution17", 
      "attr": {
        "kernel": "(5, 5)", 
        "num_filter": "18", 
        "pad": "(2, 2)"
      }, 
      "inputs": [[93, 0, 0], [6, 0, 0], [7, 0, 0]]
    }, 
    {
      "op": "SliceChannel", 
      "name": "split23", 
      "attr": {
        "axis": "1", 
        "num_outputs": "9"
      }, 
      "inputs": [[94, 0, 0]]
    }, 
    {
      "op": "_mul_scalar", 
      "name": "_mulscalar197", 
      "attr": {"scalar": "-1.0"}, 
      "inputs": [[95, 0, 0]]
    }, 
    {
      "op": "GridGenerator", 
      "name": "gridgenerator193", 
      "attr": {"transform_type": "warp"}, 
      "inputs": [[96, 0, 0]]
    }, 
    {
      "op": "BilinearSampler", 
      "name": "bilinearsampler193", 
      "inputs": [[91, 0, 0], [97, 0, 0]]
    }, 
    {
      "op": "_mul_scalar", 
      "name": "_mulscalar198", 
      "attr": {"scalar": "-1.0"}, 
      "inputs": [[95, 1, 0]]
    }, 
    {
      "op": "GridGenerator", 
      "name": "gridgenerator194", 
      "attr": {"transform_type": "warp"}, 
      "inputs": [[99, 0, 0]]
    }, 
    {
      "op": "BilinearSampler", 
      "name": "bilinearsampler194", 
      "inputs": [[91, 0, 0], [100, 0, 0]]
    }, 
    {
      "op": "_mul_scalar", 
      "name": "_mulscalar199", 
      "attr": {"scalar": "-1.0"}, 
      "inputs": [[95, 2, 0]]
    }, 
    {
      "op": "GridGenerator", 
      "name": "gridgenerator195", 
      "attr": {"transform_type": "warp"}, 
      "inputs": [[102, 0, 0]]
    }, 
    {
      "op": "BilinearSampler", 
      "name": "bilinearsampler195", 
      "inputs": [[91, 0, 0], [103, 0, 0]]
    }, 
    {
      "op": "_mul_scalar", 
      "name": "_mulscalar200", 
      "attr": {"scalar": "-1.0"}, 
      "inputs": [[95, 3, 0]]
    }, 
    {
      "op": "GridGenerator", 
      "name": "gridgenerator196", 
      "attr": {"transform_type": "warp"}, 
      "inputs": [[105, 0, 0]]
    }, 
    {
      "op": "BilinearSampler", 
      "name": "bilinearsampler196", 
      "inputs": [[91, 0, 0], [106, 0, 0]]
    }, 
    {
      "op": "_mul_scalar", 
      "name": "_mulscalar201", 
      "attr": {"scalar": "-1.0"}, 
      "inputs": [[95, 4, 0]]
    }, 
    {
      "op": "GridGenerator", 
      "name": "gridgenerator197", 
      "attr": {"transform_type": "warp"}, 
      "inputs": [[108, 0, 0]]
    }, 
    {
      "op": "BilinearSampler", 
      "name": "bilinearsampler197", 
      "inputs": [[91, 0, 0], [109, 0, 0]]
    }, 
    {
      "op": "_mul_scalar", 
      "name": "_mulscalar202", 
      "attr": {"scalar": "-1.0"}, 
      "inputs": [[95, 5, 0]]
    }, 
    {
      "op": "GridGenerator", 
      "name": "gridgenerator198", 
      "attr": {"transform_type": "warp"}, 
      "inputs": [[111, 0, 0]]
    }, 
    {
      "op": "BilinearSampler", 
      "name": "bilinearsampler198", 
      "inputs": [[91, 0, 0], [112, 0, 0]]
    }, 
    {
      "op": "_mul_scalar", 
      "name": "_mulscalar203", 
      "attr": {"scalar": "-1.0"}, 
      "inputs": [[95, 6, 0]]
    }, 
    {
      "op": "GridGenerator", 
      "name": "gridgenerator199", 
      "attr": {"transform_type": "warp"}, 
      "inputs": [[114, 0, 0]]
    }, 
    {
      "op": "BilinearSampler", 
      "name": "bilinearsampler199", 
      "inputs": [[91, 0, 0], [115, 0, 0]]
    }, 
    {
      "op": "_mul_scalar", 
      "name": "_mulscalar204", 
      "attr": {"scalar": "-1.0"}, 
      "inputs": [[95, 7, 0]]
    }, 
    {
      "op": "GridGenerator", 
      "name": "gridgenerator200", 
      "attr": {"transform_type": "warp"}, 
      "inputs": [[117, 0, 0]]
    }, 
    {
      "op": "BilinearSampler", 
      "name": "bilinearsampler200", 
      "inputs": [[91, 0, 0], [118, 0, 0]]
    }, 
    {
      "op": "_mul_scalar", 
      "name": "_mulscalar205", 
      "attr": {"scalar": "-1.0"}, 
      "inputs": [[95, 8, 0]]
    }, 
    {
      "op": "GridGenerator", 
      "name": "gridgenerator201", 
      "attr": {"transform_type": "warp"}, 
      "inputs": [[120, 0, 0]]
    }, 
    {
      "op": "BilinearSampler", 
      "name": "bilinearsampler201", 
      "inputs": [[91, 0, 0], [121, 0, 0]]
    }, 
    {
      "op": "Concat", 
      "name": "concat25", 
      "attr": {
        "dim": "1", 
        "num_args": "9"
      }, 
      "inputs": [[98, 0, 0], [101, 0, 0], [104, 0, 0], [107, 0, 0], [110, 0, 0], [113, 0, 0], [116, 0, 0], [119, 0, 0], [122, 0, 0]]
    }, 
    {
      "op": "Convolution", 
      "name": "fbrnn3_0__t2_h2h", 
      "attr": {
        "kernel": "(1, 1)", 
        "num_filter": "576"
      }, 
      "inputs": [[123, 0, 0], [38, 0, 0], [39, 0, 0]]
    }, 
    {
      "op": "SliceChannel", 
      "name": "slicechannel35", 
      "attr": {
        "axis": "1", 
        "num_outputs": "3"
      }, 
      "inputs": [[124, 0, 0]]
    }, 
    {
      "op": "Activation", 
      "name": "fbrnn3_0__t2_u", 
      "attr": {"act_type": "sigmoid"}, 
      "inputs": [[125, 1, 0]]
    }, 
    {
      "op": "elemwise_mul", 
      "name": "_mul52", 
      "inputs": [[126, 0, 0], [91, 0, 0]]
    }, 
    {
      "op": "_rminus_scalar", 
      "name": "_rminusscalar17", 
      "attr": {"scalar": "1"}, 
      "inputs": [[126, 0, 0]]
    }, 
    {
      "op": "Activation", 
      "name": "fbrnn3_0__t2_r", 
      "attr": {"act_type": "sigmoid"}, 
      "inputs": [[125, 0, 0]]
    }, 
    {
      "op": "elemwise_mul", 
      "name": "_mul51", 
      "inputs": [[129, 0, 0], [125, 2, 0]]
    }, 
    {
      "op": "LeakyReLU", 
      "name": "fbrnn3_0__t2_h_leaky", 
      "attr": {"slope": "0.2"}, 
      "inputs": [[130, 0, 0]]
    }, 
    {
      "op": "elemwise_mul", 
      "name": "_mul53", 
      "inputs": [[128, 0, 0], [131, 0, 0]]
    }, 
    {
      "op": "elemwise_add", 
      "name": "_plus77", 
      "inputs": [[127, 0, 0], [132, 0, 0]]
    }, 
    {
      "op": "Convolution", 
      "name": "fbrnn3_0__t3_h2f_conv1", 
      "attr": {
        "dilate": "(1, 1)", 
        "kernel": "(5, 5)", 
        "num_filter": "32", 
        "pad": "(2, 2)"
      }, 
      "inputs": [[133, 0, 0], [2, 0, 0], [3, 0, 0]]
    }, 
    {
      "op": "LeakyReLU", 
      "name": "leakyrelu18", 
      "attr": {"slope": "0.2"}, 
      "inputs": [[134, 0, 0]]
    }, 
    {
      "op": "Convolution", 
      "name": "convolution18", 
      "attr": {
        "kernel": "(5, 5)", 
        "num_filter": "18", 
        "pad": "(2, 2)"
      }, 
      "inputs": [[135, 0, 0], [6, 0, 0], [7, 0, 0]]
    }, 
    {
      "op": "SliceChannel", 
      "name": "split24", 
      "attr": {
        "axis": "1", 
        "num_outputs": "9"
      }, 
      "inputs": [[136, 0, 0]]
    }, 
    {
      "op": "_mul_scalar", 
      "name": "_mulscalar206", 
      "attr": {"scalar": "-1.0"}, 
      "inputs": [[137, 0, 0]]
    }, 
    {
      "op": "GridGenerator", 
      "name": "gridgenerator202", 
      "attr": {"transform_type": "warp"}, 
      "inputs": [[138, 0, 0]]
    }, 
    {
      "op": "BilinearSampler", 
      "name": "bilinearsampler202", 
      "inputs": [[133, 0, 0], [139, 0, 0]]
    }, 
    {
      "op": "_mul_scalar", 
      "name": "_mulscalar207", 
      "attr": {"scalar": "-1.0"}, 
      "inputs": [[137, 1, 0]]
    }, 
    {
      "op": "GridGenerator", 
      "name": "gridgenerator203", 
      "attr": {"transform_type": "warp"}, 
      "inputs": [[141, 0, 0]]
    }, 
    {
      "op": "BilinearSampler", 
      "name": "bilinearsampler203", 
      "inputs": [[133, 0, 0], [142, 0, 0]]
    }, 
    {
      "op": "_mul_scalar", 
      "name": "_mulscalar208", 
      "attr": {"scalar": "-1.0"}, 
      "inputs": [[137, 2, 0]]
    }, 
    {
      "op": "GridGenerator", 
      "name": "gridgenerator204", 
      "attr": {"transform_type": "warp"}, 
      "inputs": [[144, 0, 0]]
    }, 
    {
      "op": "BilinearSampler", 
      "name": "bilinearsampler204", 
      "inputs": [[133, 0, 0], [145, 0, 0]]
    }, 
    {
      "op": "_mul_scalar", 
      "name": "_mulscalar209", 
      "attr": {"scalar": "-1.0"}, 
      "inputs": [[137, 3, 0]]
    }, 
    {
      "op": "GridGenerator", 
      "name": "gridgenerator205", 
      "attr": {"transform_type": "warp"}, 
      "inputs": [[147, 0, 0]]
    }, 
    {
      "op": "BilinearSampler", 
      "name": "bilinearsampler205", 
      "inputs": [[133, 0, 0], [148, 0, 0]]
    }, 
    {
      "op": "_mul_scalar", 
      "name": "_mulscalar210", 
      "attr": {"scalar": "-1.0"}, 
      "inputs": [[137, 4, 0]]
    }, 
    {
      "op": "GridGenerator", 
      "name": "gridgenerator206", 
      "attr": {"transform_type": "warp"}, 
      "inputs": [[150, 0, 0]]
    }, 
    {
      "op": "BilinearSampler", 
      "name": "bilinearsampler206", 
      "inputs": [[133, 0, 0], [151, 0, 0]]
    }, 
    {
      "op": "_mul_scalar", 
      "name": "_mulscalar211", 
      "attr": {"scalar": "-1.0"}, 
      "inputs": [[137, 5, 0]]
    }, 
    {
      "op": "GridGenerator", 
      "name": "gridgenerator207", 
      "attr": {"transform_type": "warp"}, 
      "inputs": [[153, 0, 0]]
    }, 
    {
      "op": "BilinearSampler", 
      "name": "bilinearsampler207", 
      "inputs": [[133, 0, 0], [154, 0, 0]]
    }, 
    {
      "op": "_mul_scalar", 
      "name": "_mulscalar212", 
      "attr": {"scalar": "-1.0"}, 
      "inputs": [[137, 6, 0]]
    }, 
    {
      "op": "GridGenerator", 
      "name": "gridgenerator208", 
      "attr": {"transform_type": "warp"}, 
      "inputs": [[156, 0, 0]]
    }, 
    {
      "op": "BilinearSampler", 
      "name": "bilinearsampler208", 
      "inputs": [[133, 0, 0], [157, 0, 0]]
    }, 
    {
      "op": "_mul_scalar", 
      "name": "_mulscalar213", 
      "attr": {"scalar": "-1.0"}, 
      "inputs": [[137, 7, 0]]
    }, 
    {
      "op": "GridGenerator", 
      "name": "gridgenerator209", 
      "attr": {"transform_type": "warp"}, 
      "inputs": [[159, 0, 0]]
    }, 
    {
      "op": "BilinearSampler", 
      "name": "bilinearsampler209", 
      "inputs": [[133, 0, 0], [160, 0, 0]]
    }, 
    {
      "op": "_mul_scalar", 
      "name": "_mulscalar214", 
      "attr": {"scalar": "-1.0"}, 
      "inputs": [[137, 8, 0]]
    }, 
    {
      "op": "GridGenerator", 
      "name": "gridgenerator210", 
      "attr": {"transform_type": "warp"}, 
      "inputs": [[162, 0, 0]]
    }, 
    {
      "op": "BilinearSampler", 
      "name": "bilinearsampler210", 
      "inputs": [[133, 0, 0], [163, 0, 0]]
    }, 
    {
      "op": "Concat", 
      "name": "concat26", 
      "attr": {
        "dim": "1", 
        "num_args": "9"
      }, 
      "inputs": [[140, 0, 0], [143, 0, 0], [146, 0, 0], [149, 0, 0], [152, 0, 0], [155, 0, 0], [158, 0, 0], [161, 0, 0], [164, 0, 0]]
    }, 
    {
      "op": "Convolution", 
      "name": "fbrnn3_0__t3_h2h", 
      "attr": {
        "kernel": "(1, 1)", 
        "num_filter": "576"
      }, 
      "inputs": [[165, 0, 0], [38, 0, 0], [39, 0, 0]]
    }, 
    {
      "op": "SliceChannel", 
      "name": "slicechannel36", 
      "attr": {
        "axis": "1", 
        "num_outputs": "3"
      }, 
      "inputs": [[166, 0, 0]]
    }, 
    {
      "op": "Activation", 
      "name": "fbrnn3_0__t3_u", 
      "attr": {"act_type": "sigmoid"}, 
      "inputs": [[167, 1, 0]]
    }, 
    {
      "op": "elemwise_mul", 
      "name": "_mul55", 
      "inputs": [[168, 0, 0], [133, 0, 0]]
    }, 
    {
      "op": "_rminus_scalar", 
      "name": "_rminusscalar18", 
      "attr": {"scalar": "1"}, 
      "inputs": [[168, 0, 0]]
    }, 
    {
      "op": "Activation", 
      "name": "fbrnn3_0__t3_r", 
      "attr": {"act_type": "sigmoid"}, 
      "inputs": [[167, 0, 0]]
    }, 
    {
      "op": "elemwise_mul", 
      "name": "_mul54", 
      "inputs": [[171, 0, 0], [167, 2, 0]]
    }, 
    {
      "op": "LeakyReLU", 
      "name": "fbrnn3_0__t3_h_leaky", 
      "attr": {"slope": "0.2"}, 
      "inputs": [[172, 0, 0]]
    }, 
    {
      "op": "elemwise_mul", 
      "name": "_mul56", 
      "inputs": [[170, 0, 0], [173, 0, 0]]
    }, 
    {
      "op": "elemwise_add", 
      "name": "_plus78", 
      "inputs": [[169, 0, 0], [174, 0, 0]]
    }, 
    {
      "op": "Convolution", 
      "name": "fbrnn3_0__t4_h2f_conv1", 
      "attr": {
        "dilate": "(1, 1)", 
        "kernel": "(5, 5)", 
        "num_filter": "32", 
        "pad": "(2, 2)"
      }, 
      "inputs": [[175, 0, 0], [2, 0, 0], [3, 0, 0]]
    }, 
    {
      "op": "LeakyReLU", 
      "name": "leakyrelu19", 
      "attr": {"slope": "0.2"}, 
      "inputs": [[176, 0, 0]]
    }, 
    {
      "op": "Convolution", 
      "name": "convolution19", 
      "attr": {
        "kernel": "(5, 5)", 
        "num_filter": "18", 
        "pad": "(2, 2)"
      }, 
      "inputs": [[177, 0, 0], [6, 0, 0], [7, 0, 0]]
    }, 
    {
      "op": "SliceChannel", 
      "name": "split25", 
      "attr": {
        "axis": "1", 
        "num_outputs": "9"
      }, 
      "inputs": [[178, 0, 0]]
    }, 
    {
      "op": "_mul_scalar", 
      "name": "_mulscalar215", 
      "attr": {"scalar": "-1.0"}, 
      "inputs": [[179, 0, 0]]
    }, 
    {
      "op": "GridGenerator", 
      "name": "gridgenerator211", 
      "attr": {"transform_type": "warp"}, 
      "inputs": [[180, 0, 0]]
    }, 
    {
      "op": "BilinearSampler", 
      "name": "bilinearsampler211", 
      "inputs": [[175, 0, 0], [181, 0, 0]]
    }, 
    {
      "op": "_mul_scalar", 
      "name": "_mulscalar216", 
      "attr": {"scalar": "-1.0"}, 
      "inputs": [[179, 1, 0]]
    }, 
    {
      "op": "GridGenerator", 
      "name": "gridgenerator212", 
      "attr": {"transform_type": "warp"}, 
      "inputs": [[183, 0, 0]]
    }, 
    {
      "op": "BilinearSampler", 
      "name": "bilinearsampler212", 
      "inputs": [[175, 0, 0], [184, 0, 0]]
    }, 
    {
      "op": "_mul_scalar", 
      "name": "_mulscalar217", 
      "attr": {"scalar": "-1.0"}, 
      "inputs": [[179, 2, 0]]
    }, 
    {
      "op": "GridGenerator", 
      "name": "gridgenerator213", 
      "attr": {"transform_type": "warp"}, 
      "inputs": [[186, 0, 0]]
    }, 
    {
      "op": "BilinearSampler", 
      "name": "bilinearsampler213", 
      "inputs": [[175, 0, 0], [187, 0, 0]]
    }, 
    {
      "op": "_mul_scalar", 
      "name": "_mulscalar218", 
      "attr": {"scalar": "-1.0"}, 
      "inputs": [[179, 3, 0]]
    }, 
    {
      "op": "GridGenerator", 
      "name": "gridgenerator214", 
      "attr": {"transform_type": "warp"}, 
      "inputs": [[189, 0, 0]]
    }, 
    {
      "op": "BilinearSampler", 
      "name": "bilinearsampler214", 
      "inputs": [[175, 0, 0], [190, 0, 0]]
    }, 
    {
      "op": "_mul_scalar", 
      "name": "_mulscalar219", 
      "attr": {"scalar": "-1.0"}, 
      "inputs": [[179, 4, 0]]
    }, 
    {
      "op": "GridGenerator", 
      "name": "gridgenerator215", 
      "attr": {"transform_type": "warp"}, 
      "inputs": [[192, 0, 0]]
    }, 
    {
      "op": "BilinearSampler", 
      "name": "bilinearsampler215", 
      "inputs": [[175, 0, 0], [193, 0, 0]]
    }, 
    {
      "op": "_mul_scalar", 
      "name": "_mulscalar220", 
      "attr": {"scalar": "-1.0"}, 
      "inputs": [[179, 5, 0]]
    }, 
    {
      "op": "GridGenerator", 
      "name": "gridgenerator216", 
      "attr": {"transform_type": "warp"}, 
      "inputs": [[195, 0, 0]]
    }, 
    {
      "op": "BilinearSampler", 
      "name": "bilinearsampler216", 
      "inputs": [[175, 0, 0], [196, 0, 0]]
    }, 
    {
      "op": "_mul_scalar", 
      "name": "_mulscalar221", 
      "attr": {"scalar": "-1.0"}, 
      "inputs": [[179, 6, 0]]
    }, 
    {
      "op": "GridGenerator", 
      "name": "gridgenerator217", 
      "attr": {"transform_type": "warp"}, 
      "inputs": [[198, 0, 0]]
    }, 
    {
      "op": "BilinearSampler", 
      "name": "bilinearsampler217", 
      "inputs": [[175, 0, 0], [199, 0, 0]]
    }, 
    {
      "op": "_mul_scalar", 
      "name": "_mulscalar222", 
      "attr": {"scalar": "-1.0"}, 
      "inputs": [[179, 7, 0]]
    }, 
    {
      "op": "GridGenerator", 
      "name": "gridgenerator218", 
      "attr": {"transform_type": "warp"}, 
      "inputs": [[201, 0, 0]]
    }, 
    {
      "op": "BilinearSampler", 
      "name": "bilinearsampler218", 
      "inputs": [[175, 0, 0], [202, 0, 0]]
    }, 
    {
      "op": "_mul_scalar", 
      "name": "_mulscalar223", 
      "attr": {"scalar": "-1.0"}, 
      "inputs": [[179, 8, 0]]
    }, 
    {
      "op": "GridGenerator", 
      "name": "gridgenerator219", 
      "attr": {"transform_type": "warp"}, 
      "inputs": [[204, 0, 0]]
    }, 
    {
      "op": "BilinearSampler", 
      "name": "bilinearsampler219", 
      "inputs": [[175, 0, 0], [205, 0, 0]]
    }, 
    {
      "op": "Concat", 
      "name": "concat27", 
      "attr": {
        "dim": "1", 
        "num_args": "9"
      }, 
      "inputs": [[182, 0, 0], [185, 0, 0], [188, 0, 0], [191, 0, 0], [194, 0, 0], [197, 0, 0], [200, 0, 0], [203, 0, 0], [206, 0, 0]]
    }, 
    {
      "op": "Convolution", 
      "name": "fbrnn3_0__t4_h2h", 
      "attr": {
        "kernel": "(1, 1)", 
        "num_filter": "576"
      }, 
      "inputs": [[207, 0, 0], [38, 0, 0], [39, 0, 0]]
    }, 
    {
      "op": "SliceChannel", 
      "name": "slicechannel37", 
      "attr": {
        "axis": "1", 
        "num_outputs": "3"
      }, 
      "inputs": [[208, 0, 0]]
    }, 
    {
      "op": "Activation", 
      "name": "fbrnn3_0__t4_u", 
      "attr": {"act_type": "sigmoid"}, 
      "inputs": [[209, 1, 0]]
    }, 
    {
      "op": "elemwise_mul", 
      "name": "_mul58", 
      "inputs": [[210, 0, 0], [175, 0, 0]]
    }, 
    {
      "op": "_rminus_scalar", 
      "name": "_rminusscalar19", 
      "attr": {"scalar": "1"}, 
      "inputs": [[210, 0, 0]]
    }, 
    {
      "op": "Activation", 
      "name": "fbrnn3_0__t4_r", 
      "attr": {"act_type": "sigmoid"}, 
      "inputs": [[209, 0, 0]]
    }, 
    {
      "op": "elemwise_mul", 
      "name": "_mul57", 
      "inputs": [[213, 0, 0], [209, 2, 0]]
    }, 
    {
      "op": "LeakyReLU", 
      "name": "fbrnn3_0__t4_h_leaky", 
      "attr": {"slope": "0.2"}, 
      "inputs": [[214, 0, 0]]
    }, 
    {
      "op": "elemwise_mul", 
      "name": "_mul59", 
      "inputs": [[212, 0, 0], [215, 0, 0]]
    }, 
    {
      "op": "elemwise_add", 
      "name": "_plus79", 
      "inputs": [[211, 0, 0], [216, 0, 0]]
    }, 
    {
      "op": "Convolution", 
      "name": "fbrnn3_0__t5_h2f_conv1", 
      "attr": {
        "dilate": "(1, 1)", 
        "kernel": "(5, 5)", 
        "num_filter": "32", 
        "pad": "(2, 2)"
      }, 
      "inputs": [[217, 0, 0], [2, 0, 0], [3, 0, 0]]
    }, 
    {
      "op": "LeakyReLU", 
      "name": "leakyrelu20", 
      "attr": {"slope": "0.2"}, 
      "inputs": [[218, 0, 0]]
    }, 
    {
      "op": "Convolution", 
      "name": "convolution20", 
      "attr": {
        "kernel": "(5, 5)", 
        "num_filter": "18", 
        "pad": "(2, 2)"
      }, 
      "inputs": [[219, 0, 0], [6, 0, 0], [7, 0, 0]]
    }, 
    {
      "op": "SliceChannel", 
      "name": "split26", 
      "attr": {
        "axis": "1", 
        "num_outputs": "9"
      }, 
      "inputs": [[220, 0, 0]]
    }, 
    {
      "op": "_mul_scalar", 
      "name": "_mulscalar224", 
      "attr": {"scalar": "-1.0"}, 
      "inputs": [[221, 0, 0]]
    }, 
    {
      "op": "GridGenerator", 
      "name": "gridgenerator220", 
      "attr": {"transform_type": "warp"}, 
      "inputs": [[222, 0, 0]]
    }, 
    {
      "op": "BilinearSampler", 
      "name": "bilinearsampler220", 
      "inputs": [[217, 0, 0], [223, 0, 0]]
    }, 
    {
      "op": "_mul_scalar", 
      "name": "_mulscalar225", 
      "attr": {"scalar": "-1.0"}, 
      "inputs": [[221, 1, 0]]
    }, 
    {
      "op": "GridGenerator", 
      "name": "gridgenerator221", 
      "attr": {"transform_type": "warp"}, 
      "inputs": [[225, 0, 0]]
    }, 
    {
      "op": "BilinearSampler", 
      "name": "bilinearsampler221", 
      "inputs": [[217, 0, 0], [226, 0, 0]]
    }, 
    {
      "op": "_mul_scalar", 
      "name": "_mulscalar226", 
      "attr": {"scalar": "-1.0"}, 
      "inputs": [[221, 2, 0]]
    }, 
    {
      "op": "GridGenerator", 
      "name": "gridgenerator222", 
      "attr": {"transform_type": "warp"}, 
      "inputs": [[228, 0, 0]]
    }, 
    {
      "op": "BilinearSampler", 
      "name": "bilinearsampler222", 
      "inputs": [[217, 0, 0], [229, 0, 0]]
    }, 
    {
      "op": "_mul_scalar", 
      "name": "_mulscalar227", 
      "attr": {"scalar": "-1.0"}, 
      "inputs": [[221, 3, 0]]
    }, 
    {
      "op": "GridGenerator", 
      "name": "gridgenerator223", 
      "attr": {"transform_type": "warp"}, 
      "inputs": [[231, 0, 0]]
    }, 
    {
      "op": "BilinearSampler", 
      "name": "bilinearsampler223", 
      "inputs": [[217, 0, 0], [232, 0, 0]]
    }, 
    {
      "op": "_mul_scalar", 
      "name": "_mulscalar228", 
      "attr": {"scalar": "-1.0"}, 
      "inputs": [[221, 4, 0]]
    }, 
    {
      "op": "GridGenerator", 
      "name": "gridgenerator224", 
      "attr": {"transform_type": "warp"}, 
      "inputs": [[234, 0, 0]]
    }, 
    {
      "op": "BilinearSampler", 
      "name": "bilinearsampler224", 
      "inputs": [[217, 0, 0], [235, 0, 0]]
    }, 
    {
      "op": "_mul_scalar", 
      "name": "_mulscalar229", 
      "attr": {"scalar": "-1.0"}, 
      "inputs": [[221, 5, 0]]
    }, 
    {
      "op": "GridGenerator", 
      "name": "gridgenerator225", 
      "attr": {"transform_type": "warp"}, 
      "inputs": [[237, 0, 0]]
    }, 
    {
      "op": "BilinearSampler", 
      "name": "bilinearsampler225", 
      "inputs": [[217, 0, 0], [238, 0, 0]]
    }, 
    {
      "op": "_mul_scalar", 
      "name": "_mulscalar230", 
      "attr": {"scalar": "-1.0"}, 
      "inputs": [[221, 6, 0]]
    }, 
    {
      "op": "GridGenerator", 
      "name": "gridgenerator226", 
      "attr": {"transform_type": "warp"}, 
      "inputs": [[240, 0, 0]]
    }, 
    {
      "op": "BilinearSampler", 
      "name": "bilinearsampler226", 
      "inputs": [[217, 0, 0], [241, 0, 0]]
    }, 
    {
      "op": "_mul_scalar", 
      "name": "_mulscalar231", 
      "attr": {"scalar": "-1.0"}, 
      "inputs": [[221, 7, 0]]
    }, 
    {
      "op": "GridGenerator", 
      "name": "gridgenerator227", 
      "attr": {"transform_type": "warp"}, 
      "inputs": [[243, 0, 0]]
    }, 
    {
      "op": "BilinearSampler", 
      "name": "bilinearsampler227", 
      "inputs": [[217, 0, 0], [244, 0, 0]]
    }, 
    {
      "op": "_mul_scalar", 
      "name": "_mulscalar232", 
      "attr": {"scalar": "-1.0"}, 
      "inputs": [[221, 8, 0]]
    }, 
    {
      "op": "GridGenerator", 
      "name": "gridgenerator228", 
      "attr": {"transform_type": "warp"}, 
      "inputs": [[246, 0, 0]]
    }, 
    {
      "op": "BilinearSampler", 
      "name": "bilinearsampler228", 
      "inputs": [[217, 0, 0], [247, 0, 0]]
    }, 
    {
      "op": "Concat", 
      "name": "concat28", 
      "attr": {
        "dim": "1", 
        "num_args": "9"
      }, 
      "inputs": [[224, 0, 0], [227, 0, 0], [230, 0, 0], [233, 0, 0], [236, 0, 0], [239, 0, 0], [242, 0, 0], [245, 0, 0], [248, 0, 0]]
    }, 
    {
      "op": "Convolution", 
      "name": "fbrnn3_0__t5_h2h", 
      "attr": {
        "kernel": "(1, 1)", 
        "num_filter": "576"
      }, 
      "inputs": [[249, 0, 0], [38, 0, 0], [39, 0, 0]]
    }, 
    {
      "op": "SliceChannel", 
      "name": "slicechannel38", 
      "attr": {
        "axis": "1", 
        "num_outputs": "3"
      }, 
      "inputs": [[250, 0, 0]]
    }, 
    {
      "op": "Activation", 
      "name": "fbrnn3_0__t5_u", 
      "attr": {"act_type": "sigmoid"}, 
      "inputs": [[251, 1, 0]]
    }, 
    {
      "op": "elemwise_mul", 
      "name": "_mul61", 
      "inputs": [[252, 0, 0], [217, 0, 0]]
    }, 
    {
      "op": "_rminus_scalar", 
      "name": "_rminusscalar20", 
      "attr": {"scalar": "1"}, 
      "inputs": [[252, 0, 0]]
    }, 
    {
      "op": "Activation", 
      "name": "fbrnn3_0__t5_r", 
      "attr": {"act_type": "sigmoid"}, 
      "inputs": [[251, 0, 0]]
    }, 
    {
      "op": "elemwise_mul", 
      "name": "_mul60", 
      "inputs": [[255, 0, 0], [251, 2, 0]]
    }, 
    {
      "op": "LeakyReLU", 
      "name": "fbrnn3_0__t5_h_leaky", 
      "attr": {"slope": "0.2"}, 
      "inputs": [[256, 0, 0]]
    }, 
    {
      "op": "elemwise_mul", 
      "name": "_mul62", 
      "inputs": [[254, 0, 0], [257, 0, 0]]
    }, 
    {
      "op": "elemwise_add", 
      "name": "_plus80", 
      "inputs": [[253, 0, 0], [258, 0, 0]]
    }, 
    {
      "op": "Convolution", 
      "name": "fbrnn3_0__t6_h2f_conv1", 
      "attr": {
        "dilate": "(1, 1)", 
        "kernel": "(5, 5)", 
        "num_filter": "32", 
        "pad": "(2, 2)"
      }, 
      "inputs": [[259, 0, 0], [2, 0, 0], [3, 0, 0]]
    }, 
    {
      "op": "LeakyReLU", 
      "name": "leakyrelu21", 
      "attr": {"slope": "0.2"}, 
      "inputs": [[260, 0, 0]]
    }, 
    {
      "op": "Convolution", 
      "name": "convolution21", 
      "attr": {
        "kernel": "(5, 5)", 
        "num_filter": "18", 
        "pad": "(2, 2)"
      }, 
      "inputs": [[261, 0, 0], [6, 0, 0], [7, 0, 0]]
    }, 
    {
      "op": "SliceChannel", 
      "name": "split27", 
      "attr": {
        "axis": "1", 
        "num_outputs": "9"
      }, 
      "inputs": [[262, 0, 0]]
    }, 
    {
      "op": "_mul_scalar", 
      "name": "_mulscalar233", 
      "attr": {"scalar": "-1.0"}, 
      "inputs": [[263, 0, 0]]
    }, 
    {
      "op": "GridGenerator", 
      "name": "gridgenerator229", 
      "attr": {"transform_type": "warp"}, 
      "inputs": [[264, 0, 0]]
    }, 
    {
      "op": "BilinearSampler", 
      "name": "bilinearsampler229", 
      "inputs": [[259, 0, 0], [265, 0, 0]]
    }, 
    {
      "op": "_mul_scalar", 
      "name": "_mulscalar234", 
      "attr": {"scalar": "-1.0"}, 
      "inputs": [[263, 1, 0]]
    }, 
    {
      "op": "GridGenerator", 
      "name": "gridgenerator230", 
      "attr": {"transform_type": "warp"}, 
      "inputs": [[267, 0, 0]]
    }, 
    {
      "op": "BilinearSampler", 
      "name": "bilinearsampler230", 
      "inputs": [[259, 0, 0], [268, 0, 0]]
    }, 
    {
      "op": "_mul_scalar", 
      "name": "_mulscalar235", 
      "attr": {"scalar": "-1.0"}, 
      "inputs": [[263, 2, 0]]
    }, 
    {
      "op": "GridGenerator", 
      "name": "gridgenerator231", 
      "attr": {"transform_type": "warp"}, 
      "inputs": [[270, 0, 0]]
    }, 
    {
      "op": "BilinearSampler", 
      "name": "bilinearsampler231", 
      "inputs": [[259, 0, 0], [271, 0, 0]]
    }, 
    {
      "op": "_mul_scalar", 
      "name": "_mulscalar236", 
      "attr": {"scalar": "-1.0"}, 
      "inputs": [[263, 3, 0]]
    }, 
    {
      "op": "GridGenerator", 
      "name": "gridgenerator232", 
      "attr": {"transform_type": "warp"}, 
      "inputs": [[273, 0, 0]]
    }, 
    {
      "op": "BilinearSampler", 
      "name": "bilinearsampler232", 
      "inputs": [[259, 0, 0], [274, 0, 0]]
    }, 
    {
      "op": "_mul_scalar", 
      "name": "_mulscalar237", 
      "attr": {"scalar": "-1.0"}, 
      "inputs": [[263, 4, 0]]
    }, 
    {
      "op": "GridGenerator", 
      "name": "gridgenerator233", 
      "attr": {"transform_type": "warp"}, 
      "inputs": [[276, 0, 0]]
    }, 
    {
      "op": "BilinearSampler", 
      "name": "bilinearsampler233", 
      "inputs": [[259, 0, 0], [277, 0, 0]]
    }, 
    {
      "op": "_mul_scalar", 
      "name": "_mulscalar238", 
      "attr": {"scalar": "-1.0"}, 
      "inputs": [[263, 5, 0]]
    }, 
    {
      "op": "GridGenerator", 
      "name": "gridgenerator234", 
      "attr": {"transform_type": "warp"}, 
      "inputs": [[279, 0, 0]]
    }, 
    {
      "op": "BilinearSampler", 
      "name": "bilinearsampler234", 
      "inputs": [[259, 0, 0], [280, 0, 0]]
    }, 
    {
      "op": "_mul_scalar", 
      "name": "_mulscalar239", 
      "attr": {"scalar": "-1.0"}, 
      "inputs": [[263, 6, 0]]
    }, 
    {
      "op": "GridGenerator", 
      "name": "gridgenerator235", 
      "attr": {"transform_type": "warp"}, 
      "inputs": [[282, 0, 0]]
    }, 
    {
      "op": "BilinearSampler", 
      "name": "bilinearsampler235", 
      "inputs": [[259, 0, 0], [283, 0, 0]]
    }, 
    {
      "op": "_mul_scalar", 
      "name": "_mulscalar240", 
      "attr": {"scalar": "-1.0"}, 
      "inputs": [[263, 7, 0]]
    }, 
    {
      "op": "GridGenerator", 
      "name": "gridgenerator236", 
      "attr": {"transform_type": "warp"}, 
      "inputs": [[285, 0, 0]]
    }, 
    {
      "op": "BilinearSampler", 
      "name": "bilinearsampler236", 
      "inputs": [[259, 0, 0], [286, 0, 0]]
    }, 
    {
      "op": "_mul_scalar", 
      "name": "_mulscalar241", 
      "attr": {"scalar": "-1.0"}, 
      "inputs": [[263, 8, 0]]
    }, 
    {
      "op": "GridGenerator", 
      "name": "gridgenerator237", 
      "attr": {"transform_type": "warp"}, 
      "inputs": [[288, 0, 0]]
    }, 
    {
      "op": "BilinearSampler", 
      "name": "bilinearsampler237", 
      "inputs": [[259, 0, 0], [289, 0, 0]]
    }, 
    {
      "op": "Concat", 
      "name": "concat29", 
      "attr": {
        "dim": "1", 
        "num_args": "9"
      }, 
      "inputs": [[266, 0, 0], [269, 0, 0], [272, 0, 0], [275, 0, 0], [278, 0, 0], [281, 0, 0], [284, 0, 0], [287, 0, 0], [290, 0, 0]]
    }, 
    {
      "op": "Convolution", 
      "name": "fbrnn3_0__t6_h2h", 
      "attr": {
        "kernel": "(1, 1)", 
        "num_filter": "576"
      }, 
      "inputs": [[291, 0, 0], [38, 0, 0], [39, 0, 0]]
    }, 
    {
      "op": "SliceChannel", 
      "name": "slicechannel39", 
      "attr": {
        "axis": "1", 
        "num_outputs": "3"
      }, 
      "inputs": [[292, 0, 0]]
    }, 
    {
      "op": "Activation", 
      "name": "fbrnn3_0__t6_u", 
      "attr": {"act_type": "sigmoid"}, 
      "inputs": [[293, 1, 0]]
    }, 
    {
      "op": "elemwise_mul", 
      "name": "_mul64", 
      "inputs": [[294, 0, 0], [259, 0, 0]]
    }, 
    {
      "op": "_rminus_scalar", 
      "name": "_rminusscalar21", 
      "attr": {"scalar": "1"}, 
      "inputs": [[294, 0, 0]]
    }, 
    {
      "op": "Activation", 
      "name": "fbrnn3_0__t6_r", 
      "attr": {"act_type": "sigmoid"}, 
      "inputs": [[293, 0, 0]]
    }, 
    {
      "op": "elemwise_mul", 
      "name": "_mul63", 
      "inputs": [[297, 0, 0], [293, 2, 0]]
    }, 
    {
      "op": "LeakyReLU", 
      "name": "fbrnn3_0__t6_h_leaky", 
      "attr": {"slope": "0.2"}, 
      "inputs": [[298, 0, 0]]
    }, 
    {
      "op": "elemwise_mul", 
      "name": "_mul65", 
      "inputs": [[296, 0, 0], [299, 0, 0]]
    }, 
    {
      "op": "elemwise_add", 
      "name": "_plus81", 
      "inputs": [[295, 0, 0], [300, 0, 0]]
    }, 
    {
      "op": "Convolution", 
      "name": "fbrnn3_0__t7_h2f_conv1", 
      "attr": {
        "dilate": "(1, 1)", 
        "kernel": "(5, 5)", 
        "num_filter": "32", 
        "pad": "(2, 2)"
      }, 
      "inputs": [[301, 0, 0], [2, 0, 0], [3, 0, 0]]
    }, 
    {
      "op": "LeakyReLU", 
      "name": "leakyrelu22", 
      "attr": {"slope": "0.2"}, 
      "inputs": [[302, 0, 0]]
    }, 
    {
      "op": "Convolution", 
      "name": "convolution22", 
      "attr": {
        "kernel": "(5, 5)", 
        "num_filter": "18", 
        "pad": "(2, 2)"
      }, 
      "inputs": [[303, 0, 0], [6, 0, 0], [7, 0, 0]]
    }, 
    {
      "op": "SliceChannel", 
      "name": "split28", 
      "attr": {
        "axis": "1", 
        "num_outputs": "9"
      }, 
      "inputs": [[304, 0, 0]]
    }, 
    {
      "op": "_mul_scalar", 
      "name": "_mulscalar242", 
      "attr": {"scalar": "-1.0"}, 
      "inputs": [[305, 0, 0]]
    }, 
    {
      "op": "GridGenerator", 
      "name": "gridgenerator238", 
      "attr": {"transform_type": "warp"}, 
      "inputs": [[306, 0, 0]]
    }, 
    {
      "op": "BilinearSampler", 
      "name": "bilinearsampler238", 
      "inputs": [[301, 0, 0], [307, 0, 0]]
    }, 
    {
      "op": "_mul_scalar", 
      "name": "_mulscalar243", 
      "attr": {"scalar": "-1.0"}, 
      "inputs": [[305, 1, 0]]
    }, 
    {
      "op": "GridGenerator", 
      "name": "gridgenerator239", 
      "attr": {"transform_type": "warp"}, 
      "inputs": [[309, 0, 0]]
    }, 
    {
      "op": "BilinearSampler", 
      "name": "bilinearsampler239", 
      "inputs": [[301, 0, 0], [310, 0, 0]]
    }, 
    {
      "op": "_mul_scalar", 
      "name": "_mulscalar244", 
      "attr": {"scalar": "-1.0"}, 
      "inputs": [[305, 2, 0]]
    }, 
    {
      "op": "GridGenerator", 
      "name": "gridgenerator240", 
      "attr": {"transform_type": "warp"}, 
      "inputs": [[312, 0, 0]]
    }, 
    {
      "op": "BilinearSampler", 
      "name": "bilinearsampler240", 
      "inputs": [[301, 0, 0], [313, 0, 0]]
    }, 
    {
      "op": "_mul_scalar", 
      "name": "_mulscalar245", 
      "attr": {"scalar": "-1.0"}, 
      "inputs": [[305, 3, 0]]
    }, 
    {
      "op": "GridGenerator", 
      "name": "gridgenerator241", 
      "attr": {"transform_type": "warp"}, 
      "inputs": [[315, 0, 0]]
    }, 
    {
      "op": "BilinearSampler", 
      "name": "bilinearsampler241", 
      "inputs": [[301, 0, 0], [316, 0, 0]]
    }, 
    {
      "op": "_mul_scalar", 
      "name": "_mulscalar246", 
      "attr": {"scalar": "-1.0"}, 
      "inputs": [[305, 4, 0]]
    }, 
    {
      "op": "GridGenerator", 
      "name": "gridgenerator242", 
      "attr": {"transform_type": "warp"}, 
      "inputs": [[318, 0, 0]]
    }, 
    {
      "op": "BilinearSampler", 
      "name": "bilinearsampler242", 
      "inputs": [[301, 0, 0], [319, 0, 0]]
    }, 
    {
      "op": "_mul_scalar", 
      "name": "_mulscalar247", 
      "attr": {"scalar": "-1.0"}, 
      "inputs": [[305, 5, 0]]
    }, 
    {
      "op": "GridGenerator", 
      "name": "gridgenerator243", 
      "attr": {"transform_type": "warp"}, 
      "inputs": [[321, 0, 0]]
    }, 
    {
      "op": "BilinearSampler", 
      "name": "bilinearsampler243", 
      "inputs": [[301, 0, 0], [322, 0, 0]]
    }, 
    {
      "op": "_mul_scalar", 
      "name": "_mulscalar248", 
      "attr": {"scalar": "-1.0"}, 
      "inputs": [[305, 6, 0]]
    }, 
    {
      "op": "GridGenerator", 
      "name": "gridgenerator244", 
      "attr": {"transform_type": "warp"}, 
      "inputs": [[324, 0, 0]]
    }, 
    {
      "op": "BilinearSampler", 
      "name": "bilinearsampler244", 
      "inputs": [[301, 0, 0], [325, 0, 0]]
    }, 
    {
      "op": "_mul_scalar", 
      "name": "_mulscalar249", 
      "attr": {"scalar": "-1.0"}, 
      "inputs": [[305, 7, 0]]
    }, 
    {
      "op": "GridGenerator", 
      "name": "gridgenerator245", 
      "attr": {"transform_type": "warp"}, 
      "inputs": [[327, 0, 0]]
    }, 
    {
      "op": "BilinearSampler", 
      "name": "bilinearsampler245", 
      "inputs": [[301, 0, 0], [328, 0, 0]]
    }, 
    {
      "op": "_mul_scalar", 
      "name": "_mulscalar250", 
      "attr": {"scalar": "-1.0"}, 
      "inputs": [[305, 8, 0]]
    }, 
    {
      "op": "GridGenerator", 
      "name": "gridgenerator246", 
      "attr": {"transform_type": "warp"}, 
      "inputs": [[330, 0, 0]]
    }, 
    {
      "op": "BilinearSampler", 
      "name": "bilinearsampler246", 
      "inputs": [[301, 0, 0], [331, 0, 0]]
    }, 
    {
      "op": "Concat", 
      "name": "concat30", 
      "attr": {
        "dim": "1", 
        "num_args": "9"
      }, 
      "inputs": [[308, 0, 0], [311, 0, 0], [314, 0, 0], [317, 0, 0], [320, 0, 0], [323, 0, 0], [326, 0, 0], [329, 0, 0], [332, 0, 0]]
    }, 
    {
      "op": "Convolution", 
      "name": "fbrnn3_0__t7_h2h", 
      "attr": {
        "kernel": "(1, 1)", 
        "num_filter": "576"
      }, 
      "inputs": [[333, 0, 0], [38, 0, 0], [39, 0, 0]]
    }, 
    {
      "op": "SliceChannel", 
      "name": "slicechannel40", 
      "attr": {
        "axis": "1", 
        "num_outputs": "3"
      }, 
      "inputs": [[334, 0, 0]]
    }, 
    {
      "op": "Activation", 
      "name": "fbrnn3_0__t7_u", 
      "attr": {"act_type": "sigmoid"}, 
      "inputs": [[335, 1, 0]]
    }, 
    {
      "op": "elemwise_mul", 
      "name": "_mul67", 
      "inputs": [[336, 0, 0], [301, 0, 0]]
    }, 
    {
      "op": "_rminus_scalar", 
      "name": "_rminusscalar22", 
      "attr": {"scalar": "1"}, 
      "inputs": [[336, 0, 0]]
    }, 
    {
      "op": "Activation", 
      "name": "fbrnn3_0__t7_r", 
      "attr": {"act_type": "sigmoid"}, 
      "inputs": [[335, 0, 0]]
    }, 
    {
      "op": "elemwise_mul", 
      "name": "_mul66", 
      "inputs": [[339, 0, 0], [335, 2, 0]]
    }, 
    {
      "op": "LeakyReLU", 
      "name": "fbrnn3_0__t7_h_leaky", 
      "attr": {"slope": "0.2"}, 
      "inputs": [[340, 0, 0]]
    }, 
    {
      "op": "elemwise_mul", 
      "name": "_mul68", 
      "inputs": [[338, 0, 0], [341, 0, 0]]
    }, 
    {
      "op": "elemwise_add", 
      "name": "_plus82", 
      "inputs": [[337, 0, 0], [342, 0, 0]]
    }, 
    {
      "op": "Convolution", 
      "name": "fbrnn3_0__t8_h2f_conv1", 
      "attr": {
        "dilate": "(1, 1)", 
        "kernel": "(5, 5)", 
        "num_filter": "32", 
        "pad": "(2, 2)"
      }, 
      "inputs": [[343, 0, 0], [2, 0, 0], [3, 0, 0]]
    }, 
    {
      "op": "LeakyReLU", 
      "name": "leakyrelu23", 
      "attr": {"slope": "0.2"}, 
      "inputs": [[344, 0, 0]]
    }, 
    {
      "op": "Convolution", 
      "name": "convolution23", 
      "attr": {
        "kernel": "(5, 5)", 
        "num_filter": "18", 
        "pad": "(2, 2)"
      }, 
      "inputs": [[345, 0, 0], [6, 0, 0], [7, 0, 0]]
    }, 
    {
      "op": "SliceChannel", 
      "name": "split29", 
      "attr": {
        "axis": "1", 
        "num_outputs": "9"
      }, 
      "inputs": [[346, 0, 0]]
    }, 
    {
      "op": "_mul_scalar", 
      "name": "_mulscalar251", 
      "attr": {"scalar": "-1.0"}, 
      "inputs": [[347, 0, 0]]
    }, 
    {
      "op": "GridGenerator", 
      "name": "gridgenerator247", 
      "attr": {"transform_type": "warp"}, 
      "inputs": [[348, 0, 0]]
    }, 
    {
      "op": "BilinearSampler", 
      "name": "bilinearsampler247", 
      "inputs": [[343, 0, 0], [349, 0, 0]]
    }, 
    {
      "op": "_mul_scalar", 
      "name": "_mulscalar252", 
      "attr": {"scalar": "-1.0"}, 
      "inputs": [[347, 1, 0]]
    }, 
    {
      "op": "GridGenerator", 
      "name": "gridgenerator248", 
      "attr": {"transform_type": "warp"}, 
      "inputs": [[351, 0, 0]]
    }, 
    {
      "op": "BilinearSampler", 
      "name": "bilinearsampler248", 
      "inputs": [[343, 0, 0], [352, 0, 0]]
    }, 
    {
      "op": "_mul_scalar", 
      "name": "_mulscalar253", 
      "attr": {"scalar": "-1.0"}, 
      "inputs": [[347, 2, 0]]
    }, 
    {
      "op": "GridGenerator", 
      "name": "gridgenerator249", 
      "attr": {"transform_type": "warp"}, 
      "inputs": [[354, 0, 0]]
    }, 
    {
      "op": "BilinearSampler", 
      "name": "bilinearsampler249", 
      "inputs": [[343, 0, 0], [355, 0, 0]]
    }, 
    {
      "op": "_mul_scalar", 
      "name": "_mulscalar254", 
      "attr": {"scalar": "-1.0"}, 
      "inputs": [[347, 3, 0]]
    }, 
    {
      "op": "GridGenerator", 
      "name": "gridgenerator250", 
      "attr": {"transform_type": "warp"}, 
      "inputs": [[357, 0, 0]]
    }, 
    {
      "op": "BilinearSampler", 
      "name": "bilinearsampler250", 
      "inputs": [[343, 0, 0], [358, 0, 0]]
    }, 
    {
      "op": "_mul_scalar", 
      "name": "_mulscalar255", 
      "attr": {"scalar": "-1.0"}, 
      "inputs": [[347, 4, 0]]
    }, 
    {
      "op": "GridGenerator", 
      "name": "gridgenerator251", 
      "attr": {"transform_type": "warp"}, 
      "inputs": [[360, 0, 0]]
    }, 
    {
      "op": "BilinearSampler", 
      "name": "bilinearsampler251", 
      "inputs": [[343, 0, 0], [361, 0, 0]]
    }, 
    {
      "op": "_mul_scalar", 
      "name": "_mulscalar256", 
      "attr": {"scalar": "-1.0"}, 
      "inputs": [[347, 5, 0]]
    }, 
    {
      "op": "GridGenerator", 
      "name": "gridgenerator252", 
      "attr": {"transform_type": "warp"}, 
      "inputs": [[363, 0, 0]]
    }, 
    {
      "op": "BilinearSampler", 
      "name": "bilinearsampler252", 
      "inputs": [[343, 0, 0], [364, 0, 0]]
    }, 
    {
      "op": "_mul_scalar", 
      "name": "_mulscalar257", 
      "attr": {"scalar": "-1.0"}, 
      "inputs": [[347, 6, 0]]
    }, 
    {
      "op": "GridGenerator", 
      "name": "gridgenerator253", 
      "attr": {"transform_type": "warp"}, 
      "inputs": [[366, 0, 0]]
    }, 
    {
      "op": "BilinearSampler", 
      "name": "bilinearsampler253", 
      "inputs": [[343, 0, 0], [367, 0, 0]]
    }, 
    {
      "op": "_mul_scalar", 
      "name": "_mulscalar258", 
      "attr": {"scalar": "-1.0"}, 
      "inputs": [[347, 7, 0]]
    }, 
    {
      "op": "GridGenerator", 
      "name": "gridgenerator254", 
      "attr": {"transform_type": "warp"}, 
      "inputs": [[369, 0, 0]]
    }, 
    {
      "op": "BilinearSampler", 
      "name": "bilinearsampler254", 
      "inputs": [[343, 0, 0], [370, 0, 0]]
    }, 
    {
      "op": "_mul_scalar", 
      "name": "_mulscalar259", 
      "attr": {"scalar": "-1.0"}, 
      "inputs": [[347, 8, 0]]
    }, 
    {
      "op": "GridGenerator", 
      "name": "gridgenerator255", 
      "attr": {"transform_type": "warp"}, 
      "inputs": [[372, 0, 0]]
    }, 
    {
      "op": "BilinearSampler", 
      "name": "bilinearsampler255", 
      "inputs": [[343, 0, 0], [373, 0, 0]]
    }, 
    {
      "op": "Concat", 
      "name": "concat31", 
      "attr": {
        "dim": "1", 
        "num_args": "9"
      }, 
      "inputs": [[350, 0, 0], [353, 0, 0], [356, 0, 0], [359, 0, 0], [362, 0, 0], [365, 0, 0], [368, 0, 0], [371, 0, 0], [374, 0, 0]]
    }, 
    {
      "op": "Convolution", 
      "name": "fbrnn3_0__t8_h2h", 
      "attr": {
        "kernel": "(1, 1)", 
        "num_filter": "576"
      }, 
      "inputs": [[375, 0, 0], [38, 0, 0], [39, 0, 0]]
    }, 
    {
      "op": "SliceChannel", 
      "name": "slicechannel41", 
      "attr": {
        "axis": "1", 
        "num_outputs": "3"
      }, 
      "inputs": [[376, 0, 0]]
    }, 
    {
      "op": "Activation", 
      "name": "fbrnn3_0__t8_u", 
      "attr": {"act_type": "sigmoid"}, 
      "inputs": [[377, 1, 0]]
    }, 
    {
      "op": "elemwise_mul", 
      "name": "_mul70", 
      "inputs": [[378, 0, 0], [343, 0, 0]]
    }, 
    {
      "op": "_rminus_scalar", 
      "name": "_rminusscalar23", 
      "attr": {"scalar": "1"}, 
      "inputs": [[378, 0, 0]]
    }, 
    {
      "op": "Activation", 
      "name": "fbrnn3_0__t8_r", 
      "attr": {"act_type": "sigmoid"}, 
      "inputs": [[377, 0, 0]]
    }, 
    {
      "op": "elemwise_mul", 
      "name": "_mul69", 
      "inputs": [[381, 0, 0], [377, 2, 0]]
    }, 
    {
      "op": "LeakyReLU", 
      "name": "fbrnn3_0__t8_h_leaky", 
      "attr": {"slope": "0.2"}, 
      "inputs": [[382, 0, 0]]
    }, 
    {
      "op": "elemwise_mul", 
      "name": "_mul71", 
      "inputs": [[380, 0, 0], [383, 0, 0]]
    }, 
    {
      "op": "elemwise_add", 
      "name": "_plus83", 
      "inputs": [[379, 0, 0], [384, 0, 0]]
    }, 
    {
      "op": "Convolution", 
      "name": "fbrnn3_0__t9_h2f_conv1", 
      "attr": {
        "dilate": "(1, 1)", 
        "kernel": "(5, 5)", 
        "num_filter": "32", 
        "pad": "(2, 2)"
      }, 
      "inputs": [[385, 0, 0], [2, 0, 0], [3, 0, 0]]
    }, 
    {
      "op": "LeakyReLU", 
      "name": "leakyrelu24", 
      "attr": {"slope": "0.2"}, 
      "inputs": [[386, 0, 0]]
    }, 
    {
      "op": "Convolution", 
      "name": "convolution24", 
      "attr": {
        "kernel": "(5, 5)", 
        "num_filter": "18", 
        "pad": "(2, 2)"
      }, 
      "inputs": [[387, 0, 0], [6, 0, 0], [7, 0, 0]]
    }, 
    {
      "op": "SliceChannel", 
      "name": "split30", 
      "attr": {
        "axis": "1", 
        "num_outputs": "9"
      }, 
      "inputs": [[388, 0, 0]]
    }, 
    {
      "op": "_mul_scalar", 
      "name": "_mulscalar260", 
      "attr": {"scalar": "-1.0"}, 
      "inputs": [[389, 0, 0]]
    }, 
    {
      "op": "GridGenerator", 
      "name": "gridgenerator256", 
      "attr": {"transform_type": "warp"}, 
      "inputs": [[390, 0, 0]]
    }, 
    {
      "op": "BilinearSampler", 
      "name": "bilinearsampler256", 
      "inputs": [[385, 0, 0], [391, 0, 0]]
    }, 
    {
      "op": "_mul_scalar", 
      "name": "_mulscalar261", 
      "attr": {"scalar": "-1.0"}, 
      "inputs": [[389, 1, 0]]
    }, 
    {
      "op": "GridGenerator", 
      "name": "gridgenerator257", 
      "attr": {"transform_type": "warp"}, 
      "inputs": [[393, 0, 0]]
    }, 
    {
      "op": "BilinearSampler", 
      "name": "bilinearsampler257", 
      "inputs": [[385, 0, 0], [394, 0, 0]]
    }, 
    {
      "op": "_mul_scalar", 
      "name": "_mulscalar262", 
      "attr": {"scalar": "-1.0"}, 
      "inputs": [[389, 2, 0]]
    }, 
    {
      "op": "GridGenerator", 
      "name": "gridgenerator258", 
      "attr": {"transform_type": "warp"}, 
      "inputs": [[396, 0, 0]]
    }, 
    {
      "op": "BilinearSampler", 
      "name": "bilinearsampler258", 
      "inputs": [[385, 0, 0], [397, 0, 0]]
    }, 
    {
      "op": "_mul_scalar", 
      "name": "_mulscalar263", 
      "attr": {"scalar": "-1.0"}, 
      "inputs": [[389, 3, 0]]
    }, 
    {
      "op": "GridGenerator", 
      "name": "gridgenerator259", 
      "attr": {"transform_type": "warp"}, 
      "inputs": [[399, 0, 0]]
    }, 
    {
      "op": "BilinearSampler", 
      "name": "bilinearsampler259", 
      "inputs": [[385, 0, 0], [400, 0, 0]]
    }, 
    {
      "op": "_mul_scalar", 
      "name": "_mulscalar264", 
      "attr": {"scalar": "-1.0"}, 
      "inputs": [[389, 4, 0]]
    }, 
    {
      "op": "GridGenerator", 
      "name": "gridgenerator260", 
      "attr": {"transform_type": "warp"}, 
      "inputs": [[402, 0, 0]]
    }, 
    {
      "op": "BilinearSampler", 
      "name": "bilinearsampler260", 
      "inputs": [[385, 0, 0], [403, 0, 0]]
    }, 
    {
      "op": "_mul_scalar", 
      "name": "_mulscalar265", 
      "attr": {"scalar": "-1.0"}, 
      "inputs": [[389, 5, 0]]
    }, 
    {
      "op": "GridGenerator", 
      "name": "gridgenerator261", 
      "attr": {"transform_type": "warp"}, 
      "inputs": [[405, 0, 0]]
    }, 
    {
      "op": "BilinearSampler", 
      "name": "bilinearsampler261", 
      "inputs": [[385, 0, 0], [406, 0, 0]]
    }, 
    {
      "op": "_mul_scalar", 
      "name": "_mulscalar266", 
      "attr": {"scalar": "-1.0"}, 
      "inputs": [[389, 6, 0]]
    }, 
    {
      "op": "GridGenerator", 
      "name": "gridgenerator262", 
      "attr": {"transform_type": "warp"}, 
      "inputs": [[408, 0, 0]]
    }, 
    {
      "op": "BilinearSampler", 
      "name": "bilinearsampler262", 
      "inputs": [[385, 0, 0], [409, 0, 0]]
    }, 
    {
      "op": "_mul_scalar", 
      "name": "_mulscalar267", 
      "attr": {"scalar": "-1.0"}, 
      "inputs": [[389, 7, 0]]
    }, 
    {
      "op": "GridGenerator", 
      "name": "gridgenerator263", 
      "attr": {"transform_type": "warp"}, 
      "inputs": [[411, 0, 0]]
    }, 
    {
      "op": "BilinearSampler", 
      "name": "bilinearsampler263", 
      "inputs": [[385, 0, 0], [412, 0, 0]]
    }, 
    {
      "op": "_mul_scalar", 
      "name": "_mulscalar268", 
      "attr": {"scalar": "-1.0"}, 
      "inputs": [[389, 8, 0]]
    }, 
    {
      "op": "GridGenerator", 
      "name": "gridgenerator264", 
      "attr": {"transform_type": "warp"}, 
      "inputs": [[414, 0, 0]]
    }, 
    {
      "op": "BilinearSampler", 
      "name": "bilinearsampler264", 
      "inputs": [[385, 0, 0], [415, 0, 0]]
    }, 
    {
      "op": "Concat", 
      "name": "concat32", 
      "attr": {
        "dim": "1", 
        "num_args": "9"
      }, 
      "inputs": [[392, 0, 0], [395, 0, 0], [398, 0, 0], [401, 0, 0], [404, 0, 0], [407, 0, 0], [410, 0, 0], [413, 0, 0], [416, 0, 0]]
    }, 
    {
      "op": "Convolution", 
      "name": "fbrnn3_0__t9_h2h", 
      "attr": {
        "kernel": "(1, 1)", 
        "num_filter": "576"
      }, 
      "inputs": [[417, 0, 0], [38, 0, 0], [39, 0, 0]]
    }, 
    {
      "op": "SliceChannel", 
      "name": "slicechannel42", 
      "attr": {
        "axis": "1", 
        "num_outputs": "3"
      }, 
      "inputs": [[418, 0, 0]]
    }, 
    {
      "op": "Activation", 
      "name": "fbrnn3_0__t9_u", 
      "attr": {"act_type": "sigmoid"}, 
      "inputs": [[419, 1, 0]]
    }, 
    {
      "op": "elemwise_mul", 
      "name": "_mul73", 
      "inputs": [[420, 0, 0], [385, 0, 0]]
    }, 
    {
      "op": "_rminus_scalar", 
      "name": "_rminusscalar24", 
      "attr": {"scalar": "1"}, 
      "inputs": [[420, 0, 0]]
    }, 
    {
      "op": "Activation", 
      "name": "fbrnn3_0__t9_r", 
      "attr": {"act_type": "sigmoid"}, 
      "inputs": [[419, 0, 0]]
    }, 
    {
      "op": "elemwise_mul", 
      "name": "_mul72", 
      "inputs": [[423, 0, 0], [419, 2, 0]]
    }, 
    {
      "op": "LeakyReLU", 
      "name": "fbrnn3_0__t9_h_leaky", 
      "attr": {"slope": "0.2"}, 
      "inputs": [[424, 0, 0]]
    }, 
    {
      "op": "elemwise_mul", 
      "name": "_mul74", 
      "inputs": [[422, 0, 0], [425, 0, 0]]
    }, 
    {
      "op": "elemwise_add", 
      "name": "_plus84", 
      "inputs": [[421, 0, 0], [426, 0, 0]]
    }, 
    {
      "op": "Convolution", 
      "name": "fbrnn3_0__t10_h2f_conv1", 
      "attr": {
        "dilate": "(1, 1)", 
        "kernel": "(5, 5)", 
        "num_filter": "32", 
        "pad": "(2, 2)"
      }, 
      "inputs": [[427, 0, 0], [2, 0, 0], [3, 0, 0]]
    }, 
    {
      "op": "LeakyReLU", 
      "name": "leakyrelu25", 
      "attr": {"slope": "0.2"}, 
      "inputs": [[428, 0, 0]]
    }, 
    {
      "op": "Convolution", 
      "name": "convolution25", 
      "attr": {
        "kernel": "(5, 5)", 
        "num_filter": "18", 
        "pad": "(2, 2)"
      }, 
      "inputs": [[429, 0, 0], [6, 0, 0], [7, 0, 0]]
    }, 
    {
      "op": "SliceChannel", 
      "name": "split31", 
      "attr": {
        "axis": "1", 
        "num_outputs": "9"
      }, 
      "inputs": [[430, 0, 0]]
    }, 
    {
      "op": "_mul_scalar", 
      "name": "_mulscalar269", 
      "attr": {"scalar": "-1.0"}, 
      "inputs": [[431, 0, 0]]
    }, 
    {
      "op": "GridGenerator", 
      "name": "gridgenerator265", 
      "attr": {"transform_type": "warp"}, 
      "inputs": [[432, 0, 0]]
    }, 
    {
      "op": "BilinearSampler", 
      "name": "bilinearsampler265", 
      "inputs": [[427, 0, 0], [433, 0, 0]]
    }, 
    {
      "op": "_mul_scalar", 
      "name": "_mulscalar270", 
      "attr": {"scalar": "-1.0"}, 
      "inputs": [[431, 1, 0]]
    }, 
    {
      "op": "GridGenerator", 
      "name": "gridgenerator266", 
      "attr": {"transform_type": "warp"}, 
      "inputs": [[435, 0, 0]]
    }, 
    {
      "op": "BilinearSampler", 
      "name": "bilinearsampler266", 
      "inputs": [[427, 0, 0], [436, 0, 0]]
    }, 
    {
      "op": "_mul_scalar", 
      "name": "_mulscalar271", 
      "attr": {"scalar": "-1.0"}, 
      "inputs": [[431, 2, 0]]
    }, 
    {
      "op": "GridGenerator", 
      "name": "gridgenerator267", 
      "attr": {"transform_type": "warp"}, 
      "inputs": [[438, 0, 0]]
    }, 
    {
      "op": "BilinearSampler", 
      "name": "bilinearsampler267", 
      "inputs": [[427, 0, 0], [439, 0, 0]]
    }, 
    {
      "op": "_mul_scalar", 
      "name": "_mulscalar272", 
      "attr": {"scalar": "-1.0"}, 
      "inputs": [[431, 3, 0]]
    }, 
    {
      "op": "GridGenerator", 
      "name": "gridgenerator268", 
      "attr": {"transform_type": "warp"}, 
      "inputs": [[441, 0, 0]]
    }, 
    {
      "op": "BilinearSampler", 
      "name": "bilinearsampler268", 
      "inputs": [[427, 0, 0], [442, 0, 0]]
    }, 
    {
      "op": "_mul_scalar", 
      "name": "_mulscalar273", 
      "attr": {"scalar": "-1.0"}, 
      "inputs": [[431, 4, 0]]
    }, 
    {
      "op": "GridGenerator", 
      "name": "gridgenerator269", 
      "attr": {"transform_type": "warp"}, 
      "inputs": [[444, 0, 0]]
    }, 
    {
      "op": "BilinearSampler", 
      "name": "bilinearsampler269", 
      "inputs": [[427, 0, 0], [445, 0, 0]]
    }, 
    {
      "op": "_mul_scalar", 
      "name": "_mulscalar274", 
      "attr": {"scalar": "-1.0"}, 
      "inputs": [[431, 5, 0]]
    }, 
    {
      "op": "GridGenerator", 
      "name": "gridgenerator270", 
      "attr": {"transform_type": "warp"}, 
      "inputs": [[447, 0, 0]]
    }, 
    {
      "op": "BilinearSampler", 
      "name": "bilinearsampler270", 
      "inputs": [[427, 0, 0], [448, 0, 0]]
    }, 
    {
      "op": "_mul_scalar", 
      "name": "_mulscalar275", 
      "attr": {"scalar": "-1.0"}, 
      "inputs": [[431, 6, 0]]
    }, 
    {
      "op": "GridGenerator", 
      "name": "gridgenerator271", 
      "attr": {"transform_type": "warp"}, 
      "inputs": [[450, 0, 0]]
    }, 
    {
      "op": "BilinearSampler", 
      "name": "bilinearsampler271", 
      "inputs": [[427, 0, 0], [451, 0, 0]]
    }, 
    {
      "op": "_mul_scalar", 
      "name": "_mulscalar276", 
      "attr": {"scalar": "-1.0"}, 
      "inputs": [[431, 7, 0]]
    }, 
    {
      "op": "GridGenerator", 
      "name": "gridgenerator272", 
      "attr": {"transform_type": "warp"}, 
      "inputs": [[453, 0, 0]]
    }, 
    {
      "op": "BilinearSampler", 
      "name": "bilinearsampler272", 
      "inputs": [[427, 0, 0], [454, 0, 0]]
    }, 
    {
      "op": "_mul_scalar", 
      "name": "_mulscalar277", 
      "attr": {"scalar": "-1.0"}, 
      "inputs": [[431, 8, 0]]
    }, 
    {
      "op": "GridGenerator", 
      "name": "gridgenerator273", 
      "attr": {"transform_type": "warp"}, 
      "inputs": [[456, 0, 0]]
    }, 
    {
      "op": "BilinearSampler", 
      "name": "bilinearsampler273", 
      "inputs": [[427, 0, 0], [457, 0, 0]]
    }, 
    {
      "op": "Concat", 
      "name": "concat33", 
      "attr": {
        "dim": "1", 
        "num_args": "9"
      }, 
      "inputs": [[434, 0, 0], [437, 0, 0], [440, 0, 0], [443, 0, 0], [446, 0, 0], [449, 0, 0], [452, 0, 0], [455, 0, 0], [458, 0, 0]]
    }, 
    {
      "op": "Convolution", 
      "name": "fbrnn3_0__t10_h2h", 
      "attr": {
        "kernel": "(1, 1)", 
        "num_filter": "576"
      }, 
      "inputs": [[459, 0, 0], [38, 0, 0], [39, 0, 0]]
    }, 
    {
      "op": "SliceChannel", 
      "name": "slicechannel43", 
      "attr": {
        "axis": "1", 
        "num_outputs": "3"
      }, 
      "inputs": [[460, 0, 0]]
    }, 
    {
      "op": "Activation", 
      "name": "fbrnn3_0__t10_u", 
      "attr": {"act_type": "sigmoid"}, 
      "inputs": [[461, 1, 0]]
    }, 
    {
      "op": "elemwise_mul", 
      "name": "_mul76", 
      "inputs": [[462, 0, 0], [427, 0, 0]]
    }, 
    {
      "op": "_rminus_scalar", 
      "name": "_rminusscalar25", 
      "attr": {"scalar": "1"}, 
      "inputs": [[462, 0, 0]]
    }, 
    {
      "op": "Activation", 
      "name": "fbrnn3_0__t10_r", 
      "attr": {"act_type": "sigmoid"}, 
      "inputs": [[461, 0, 0]]
    }, 
    {
      "op": "elemwise_mul", 
      "name": "_mul75", 
      "inputs": [[465, 0, 0], [461, 2, 0]]
    }, 
    {
      "op": "LeakyReLU", 
      "name": "fbrnn3_0__t10_h_leaky", 
      "attr": {"slope": "0.2"}, 
      "inputs": [[466, 0, 0]]
    }, 
    {
      "op": "elemwise_mul", 
      "name": "_mul77", 
      "inputs": [[464, 0, 0], [467, 0, 0]]
    }, 
    {
      "op": "elemwise_add", 
      "name": "_plus85", 
      "inputs": [[463, 0, 0], [468, 0, 0]]
    }, 
    {
      "op": "Convolution", 
      "name": "fbrnn3_0__t11_h2f_conv1", 
      "attr": {
        "dilate": "(1, 1)", 
        "kernel": "(5, 5)", 
        "num_filter": "32", 
        "pad": "(2, 2)"
      }, 
      "inputs": [[469, 0, 0], [2, 0, 0], [3, 0, 0]]
    }, 
    {
      "op": "LeakyReLU", 
      "name": "leakyrelu26", 
      "attr": {"slope": "0.2"}, 
      "inputs": [[470, 0, 0]]
    }, 
    {
      "op": "Convolution", 
      "name": "convolution26", 
      "attr": {
        "kernel": "(5, 5)", 
        "num_filter": "18", 
        "pad": "(2, 2)"
      }, 
      "inputs": [[471, 0, 0], [6, 0, 0], [7, 0, 0]]
    }, 
    {
      "op": "SliceChannel", 
      "name": "split32", 
      "attr": {
        "axis": "1", 
        "num_outputs": "9"
      }, 
      "inputs": [[472, 0, 0]]
    }, 
    {
      "op": "_mul_scalar", 
      "name": "_mulscalar278", 
      "attr": {"scalar": "-1.0"}, 
      "inputs": [[473, 0, 0]]
    }, 
    {
      "op": "GridGenerator", 
      "name": "gridgenerator274", 
      "attr": {"transform_type": "warp"}, 
      "inputs": [[474, 0, 0]]
    }, 
    {
      "op": "BilinearSampler", 
      "name": "bilinearsampler274", 
      "inputs": [[469, 0, 0], [475, 0, 0]]
    }, 
    {
      "op": "_mul_scalar", 
      "name": "_mulscalar279", 
      "attr": {"scalar": "-1.0"}, 
      "inputs": [[473, 1, 0]]
    }, 
    {
      "op": "GridGenerator", 
      "name": "gridgenerator275", 
      "attr": {"transform_type": "warp"}, 
      "inputs": [[477, 0, 0]]
    }, 
    {
      "op": "BilinearSampler", 
      "name": "bilinearsampler275", 
      "inputs": [[469, 0, 0], [478, 0, 0]]
    }, 
    {
      "op": "_mul_scalar", 
      "name": "_mulscalar280", 
      "attr": {"scalar": "-1.0"}, 
      "inputs": [[473, 2, 0]]
    }, 
    {
      "op": "GridGenerator", 
      "name": "gridgenerator276", 
      "attr": {"transform_type": "warp"}, 
      "inputs": [[480, 0, 0]]
    }, 
    {
      "op": "BilinearSampler", 
      "name": "bilinearsampler276", 
      "inputs": [[469, 0, 0], [481, 0, 0]]
    }, 
    {
      "op": "_mul_scalar", 
      "name": "_mulscalar281", 
      "attr": {"scalar": "-1.0"}, 
      "inputs": [[473, 3, 0]]
    }, 
    {
      "op": "GridGenerator", 
      "name": "gridgenerator277", 
      "attr": {"transform_type": "warp"}, 
      "inputs": [[483, 0, 0]]
    }, 
    {
      "op": "BilinearSampler", 
      "name": "bilinearsampler277", 
      "inputs": [[469, 0, 0], [484, 0, 0]]
    }, 
    {
      "op": "_mul_scalar", 
      "name": "_mulscalar282", 
      "attr": {"scalar": "-1.0"}, 
      "inputs": [[473, 4, 0]]
    }, 
    {
      "op": "GridGenerator", 
      "name": "gridgenerator278", 
      "attr": {"transform_type": "warp"}, 
      "inputs": [[486, 0, 0]]
    }, 
    {
      "op": "BilinearSampler", 
      "name": "bilinearsampler278", 
      "inputs": [[469, 0, 0], [487, 0, 0]]
    }, 
    {
      "op": "_mul_scalar", 
      "name": "_mulscalar283", 
      "attr": {"scalar": "-1.0"}, 
      "inputs": [[473, 5, 0]]
    }, 
    {
      "op": "GridGenerator", 
      "name": "gridgenerator279", 
      "attr": {"transform_type": "warp"}, 
      "inputs": [[489, 0, 0]]
    }, 
    {
      "op": "BilinearSampler", 
      "name": "bilinearsampler279", 
      "inputs": [[469, 0, 0], [490, 0, 0]]
    }, 
    {
      "op": "_mul_scalar", 
      "name": "_mulscalar284", 
      "attr": {"scalar": "-1.0"}, 
      "inputs": [[473, 6, 0]]
    }, 
    {
      "op": "GridGenerator", 
      "name": "gridgenerator280", 
      "attr": {"transform_type": "warp"}, 
      "inputs": [[492, 0, 0]]
    }, 
    {
      "op": "BilinearSampler", 
      "name": "bilinearsampler280", 
      "inputs": [[469, 0, 0], [493, 0, 0]]
    }, 
    {
      "op": "_mul_scalar", 
      "name": "_mulscalar285", 
      "attr": {"scalar": "-1.0"}, 
      "inputs": [[473, 7, 0]]
    }, 
    {
      "op": "GridGenerator", 
      "name": "gridgenerator281", 
      "attr": {"transform_type": "warp"}, 
      "inputs": [[495, 0, 0]]
    }, 
    {
      "op": "BilinearSampler", 
      "name": "bilinearsampler281", 
      "inputs": [[469, 0, 0], [496, 0, 0]]
    }, 
    {
      "op": "_mul_scalar", 
      "name": "_mulscalar286", 
      "attr": {"scalar": "-1.0"}, 
      "inputs": [[473, 8, 0]]
    }, 
    {
      "op": "GridGenerator", 
      "name": "gridgenerator282", 
      "attr": {"transform_type": "warp"}, 
      "inputs": [[498, 0, 0]]
    }, 
    {
      "op": "BilinearSampler", 
      "name": "bilinearsampler282", 
      "inputs": [[469, 0, 0], [499, 0, 0]]
    }, 
    {
      "op": "Concat", 
      "name": "concat34", 
      "attr": {
        "dim": "1", 
        "num_args": "9"
      }, 
      "inputs": [[476, 0, 0], [479, 0, 0], [482, 0, 0], [485, 0, 0], [488, 0, 0], [491, 0, 0], [494, 0, 0], [497, 0, 0], [500, 0, 0]]
    }, 
    {
      "op": "Convolution", 
      "name": "fbrnn3_0__t11_h2h", 
      "attr": {
        "kernel": "(1, 1)", 
        "num_filter": "576"
      }, 
      "inputs": [[501, 0, 0], [38, 0, 0], [39, 0, 0]]
    }, 
    {
      "op": "SliceChannel", 
      "name": "slicechannel44", 
      "attr": {
        "axis": "1", 
        "num_outputs": "3"
      }, 
      "inputs": [[502, 0, 0]]
    }, 
    {
      "op": "Activation", 
      "name": "fbrnn3_0__t11_u", 
      "attr": {"act_type": "sigmoid"}, 
      "inputs": [[503, 1, 0]]
    }, 
    {
      "op": "elemwise_mul", 
      "name": "_mul79", 
      "inputs": [[504, 0, 0], [469, 0, 0]]
    }, 
    {
      "op": "_rminus_scalar", 
      "name": "_rminusscalar26", 
      "attr": {"scalar": "1"}, 
      "inputs": [[504, 0, 0]]
    }, 
    {
      "op": "Activation", 
      "name": "fbrnn3_0__t11_r", 
      "attr": {"act_type": "sigmoid"}, 
      "inputs": [[503, 0, 0]]
    }, 
    {
      "op": "elemwise_mul", 
      "name": "_mul78", 
      "inputs": [[507, 0, 0], [503, 2, 0]]
    }, 
    {
      "op": "LeakyReLU", 
      "name": "fbrnn3_0__t11_h_leaky", 
      "attr": {"slope": "0.2"}, 
      "inputs": [[508, 0, 0]]
    }, 
    {
      "op": "elemwise_mul", 
      "name": "_mul80", 
      "inputs": [[506, 0, 0], [509, 0, 0]]
    }, 
    {
      "op": "elemwise_add", 
      "name": "_plus86", 
      "inputs": [[505, 0, 0], [510, 0, 0]]
    }, 
    {
      "op": "Convolution", 
      "name": "fbrnn3_0__t12_h2f_conv1", 
      "attr": {
        "dilate": "(1, 1)", 
        "kernel": "(5, 5)", 
        "num_filter": "32", 
        "pad": "(2, 2)"
      }, 
      "inputs": [[511, 0, 0], [2, 0, 0], [3, 0, 0]]
    }, 
    {
      "op": "LeakyReLU", 
      "name": "leakyrelu27", 
      "attr": {"slope": "0.2"}, 
      "inputs": [[512, 0, 0]]
    }, 
    {
      "op": "Convolution", 
      "name": "convolution27", 
      "attr": {
        "kernel": "(5, 5)", 
        "num_filter": "18", 
        "pad": "(2, 2)"
      }, 
      "inputs": [[513, 0, 0], [6, 0, 0], [7, 0, 0]]
    }, 
    {
      "op": "SliceChannel", 
      "name": "split33", 
      "attr": {
        "axis": "1", 
        "num_outputs": "9"
      }, 
      "inputs": [[514, 0, 0]]
    }, 
    {
      "op": "_mul_scalar", 
      "name": "_mulscalar287", 
      "attr": {"scalar": "-1.0"}, 
      "inputs": [[515, 0, 0]]
    }, 
    {
      "op": "GridGenerator", 
      "name": "gridgenerator283", 
      "attr": {"transform_type": "warp"}, 
      "inputs": [[516, 0, 0]]
    }, 
    {
      "op": "BilinearSampler", 
      "name": "bilinearsampler283", 
      "inputs": [[511, 0, 0], [517, 0, 0]]
    }, 
    {
      "op": "_mul_scalar", 
      "name": "_mulscalar288", 
      "attr": {"scalar": "-1.0"}, 
      "inputs": [[515, 1, 0]]
    }, 
    {
      "op": "GridGenerator", 
      "name": "gridgenerator284", 
      "attr": {"transform_type": "warp"}, 
      "inputs": [[519, 0, 0]]
    }, 
    {
      "op": "BilinearSampler", 
      "name": "bilinearsampler284", 
      "inputs": [[511, 0, 0], [520, 0, 0]]
    }, 
    {
      "op": "_mul_scalar", 
      "name": "_mulscalar289", 
      "attr": {"scalar": "-1.0"}, 
      "inputs": [[515, 2, 0]]
    }, 
    {
      "op": "GridGenerator", 
      "name": "gridgenerator285", 
      "attr": {"transform_type": "warp"}, 
      "inputs": [[522, 0, 0]]
    }, 
    {
      "op": "BilinearSampler", 
      "name": "bilinearsampler285", 
      "inputs": [[511, 0, 0], [523, 0, 0]]
    }, 
    {
      "op": "_mul_scalar", 
      "name": "_mulscalar290", 
      "attr": {"scalar": "-1.0"}, 
      "inputs": [[515, 3, 0]]
    }, 
    {
      "op": "GridGenerator", 
      "name": "gridgenerator286", 
      "attr": {"transform_type": "warp"}, 
      "inputs": [[525, 0, 0]]
    }, 
    {
      "op": "BilinearSampler", 
      "name": "bilinearsampler286", 
      "inputs": [[511, 0, 0], [526, 0, 0]]
    }, 
    {
      "op": "_mul_scalar", 
      "name": "_mulscalar291", 
      "attr": {"scalar": "-1.0"}, 
      "inputs": [[515, 4, 0]]
    }, 
    {
      "op": "GridGenerator", 
      "name": "gridgenerator287", 
      "attr": {"transform_type": "warp"}, 
      "inputs": [[528, 0, 0]]
    }, 
    {
      "op": "BilinearSampler", 
      "name": "bilinearsampler287", 
      "inputs": [[511, 0, 0], [529, 0, 0]]
    }, 
    {
      "op": "_mul_scalar", 
      "name": "_mulscalar292", 
      "attr": {"scalar": "-1.0"}, 
      "inputs": [[515, 5, 0]]
    }, 
    {
      "op": "GridGenerator", 
      "name": "gridgenerator288", 
      "attr": {"transform_type": "warp"}, 
      "inputs": [[531, 0, 0]]
    }, 
    {
      "op": "BilinearSampler", 
      "name": "bilinearsampler288", 
      "inputs": [[511, 0, 0], [532, 0, 0]]
    }, 
    {
      "op": "_mul_scalar", 
      "name": "_mulscalar293", 
      "attr": {"scalar": "-1.0"}, 
      "inputs": [[515, 6, 0]]
    }, 
    {
      "op": "GridGenerator", 
      "name": "gridgenerator289", 
      "attr": {"transform_type": "warp"}, 
      "inputs": [[534, 0, 0]]
    }, 
    {
      "op": "BilinearSampler", 
      "name": "bilinearsampler289", 
      "inputs": [[511, 0, 0], [535, 0, 0]]
    }, 
    {
      "op": "_mul_scalar", 
      "name": "_mulscalar294", 
      "attr": {"scalar": "-1.0"}, 
      "inputs": [[515, 7, 0]]
    }, 
    {
      "op": "GridGenerator", 
      "name": "gridgenerator290", 
      "attr": {"transform_type": "warp"}, 
      "inputs": [[537, 0, 0]]
    }, 
    {
      "op": "BilinearSampler", 
      "name": "bilinearsampler290", 
      "inputs": [[511, 0, 0], [538, 0, 0]]
    }, 
    {
      "op": "_mul_scalar", 
      "name": "_mulscalar295", 
      "attr": {"scalar": "-1.0"}, 
      "inputs": [[515, 8, 0]]
    }, 
    {
      "op": "GridGenerator", 
      "name": "gridgenerator291", 
      "attr": {"transform_type": "warp"}, 
      "inputs": [[540, 0, 0]]
    }, 
    {
      "op": "BilinearSampler", 
      "name": "bilinearsampler291", 
      "inputs": [[511, 0, 0], [541, 0, 0]]
    }, 
    {
      "op": "Concat", 
      "name": "concat35", 
      "attr": {
        "dim": "1", 
        "num_args": "9"
      }, 
      "inputs": [[518, 0, 0], [521, 0, 0], [524, 0, 0], [527, 0, 0], [530, 0, 0], [533, 0, 0], [536, 0, 0], [539, 0, 0], [542, 0, 0]]
    }, 
    {
      "op": "Convolution", 
      "name": "fbrnn3_0__t12_h2h", 
      "attr": {
        "kernel": "(1, 1)", 
        "num_filter": "576"
      }, 
      "inputs": [[543, 0, 0], [38, 0, 0], [39, 0, 0]]
    }, 
    {
      "op": "SliceChannel", 
      "name": "slicechannel45", 
      "attr": {
        "axis": "1", 
        "num_outputs": "3"
      }, 
      "inputs": [[544, 0, 0]]
    }, 
    {
      "op": "Activation", 
      "name": "fbrnn3_0__t12_u", 
      "attr": {"act_type": "sigmoid"}, 
      "inputs": [[545, 1, 0]]
    }, 
    {
      "op": "elemwise_mul", 
      "name": "_mul82", 
      "inputs": [[546, 0, 0], [511, 0, 0]]
    }, 
    {
      "op": "_rminus_scalar", 
      "name": "_rminusscalar27", 
      "attr": {"scalar": "1"}, 
      "inputs": [[546, 0, 0]]
    }, 
    {
      "op": "Activation", 
      "name": "fbrnn3_0__t12_r", 
      "attr": {"act_type": "sigmoid"}, 
      "inputs": [[545, 0, 0]]
    }, 
    {
      "op": "elemwise_mul", 
      "name": "_mul81", 
      "inputs": [[549, 0, 0], [545, 2, 0]]
    }, 
    {
      "op": "LeakyReLU", 
      "name": "fbrnn3_0__t12_h_leaky", 
      "attr": {"slope": "0.2"}, 
      "inputs": [[550, 0, 0]]
    }, 
    {
      "op": "elemwise_mul", 
      "name": "_mul83", 
      "inputs": [[548, 0, 0], [551, 0, 0]]
    }, 
    {
      "op": "elemwise_add", 
      "name": "_plus87", 
      "inputs": [[547, 0, 0], [552, 0, 0]]
    }, 
    {
      "op": "Convolution", 
      "name": "fbrnn3_0__t13_h2f_conv1", 
      "attr": {
        "dilate": "(1, 1)", 
        "kernel": "(5, 5)", 
        "num_filter": "32", 
        "pad": "(2, 2)"
      }, 
      "inputs": [[553, 0, 0], [2, 0, 0], [3, 0, 0]]
    }, 
    {
      "op": "LeakyReLU", 
      "name": "leakyrelu28", 
      "attr": {"slope": "0.2"}, 
      "inputs": [[554, 0, 0]]
    }, 
    {
      "op": "Convolution", 
      "name": "convolution28", 
      "attr": {
        "kernel": "(5, 5)", 
        "num_filter": "18", 
        "pad": "(2, 2)"
      }, 
      "inputs": [[555, 0, 0], [6, 0, 0], [7, 0, 0]]
    }, 
    {
      "op": "SliceChannel", 
      "name": "split34", 
      "attr": {
        "axis": "1", 
        "num_outputs": "9"
      }, 
      "inputs": [[556, 0, 0]]
    }, 
    {
      "op": "_mul_scalar", 
      "name": "_mulscalar296", 
      "attr": {"scalar": "-1.0"}, 
      "inputs": [[557, 0, 0]]
    }, 
    {
      "op": "GridGenerator", 
      "name": "gridgenerator292", 
      "attr": {"transform_type": "warp"}, 
      "inputs": [[558, 0, 0]]
    }, 
    {
      "op": "BilinearSampler", 
      "name": "bilinearsampler292", 
      "inputs": [[553, 0, 0], [559, 0, 0]]
    }, 
    {
      "op": "_mul_scalar", 
      "name": "_mulscalar297", 
      "attr": {"scalar": "-1.0"}, 
      "inputs": [[557, 1, 0]]
    }, 
    {
      "op": "GridGenerator", 
      "name": "gridgenerator293", 
      "attr": {"transform_type": "warp"}, 
      "inputs": [[561, 0, 0]]
    }, 
    {
      "op": "BilinearSampler", 
      "name": "bilinearsampler293", 
      "inputs": [[553, 0, 0], [562, 0, 0]]
    }, 
    {
      "op": "_mul_scalar", 
      "name": "_mulscalar298", 
      "attr": {"scalar": "-1.0"}, 
      "inputs": [[557, 2, 0]]
    }, 
    {
      "op": "GridGenerator", 
      "name": "gridgenerator294", 
      "attr": {"transform_type": "warp"}, 
      "inputs": [[564, 0, 0]]
    }, 
    {
      "op": "BilinearSampler", 
      "name": "bilinearsampler294", 
      "inputs": [[553, 0, 0], [565, 0, 0]]
    }, 
    {
      "op": "_mul_scalar", 
      "name": "_mulscalar299", 
      "attr": {"scalar": "-1.0"}, 
      "inputs": [[557, 3, 0]]
    }, 
    {
      "op": "GridGenerator", 
      "name": "gridgenerator295", 
      "attr": {"transform_type": "warp"}, 
      "inputs": [[567, 0, 0]]
    }, 
    {
      "op": "BilinearSampler", 
      "name": "bilinearsampler295", 
      "inputs": [[553, 0, 0], [568, 0, 0]]
    }, 
    {
      "op": "_mul_scalar", 
      "name": "_mulscalar300", 
      "attr": {"scalar": "-1.0"}, 
      "inputs": [[557, 4, 0]]
    }, 
    {
      "op": "GridGenerator", 
      "name": "gridgenerator296", 
      "attr": {"transform_type": "warp"}, 
      "inputs": [[570, 0, 0]]
    }, 
    {
      "op": "BilinearSampler", 
      "name": "bilinearsampler296", 
      "inputs": [[553, 0, 0], [571, 0, 0]]
    }, 
    {
      "op": "_mul_scalar", 
      "name": "_mulscalar301", 
      "attr": {"scalar": "-1.0"}, 
      "inputs": [[557, 5, 0]]
    }, 
    {
      "op": "GridGenerator", 
      "name": "gridgenerator297", 
      "attr": {"transform_type": "warp"}, 
      "inputs": [[573, 0, 0]]
    }, 
    {
      "op": "BilinearSampler", 
      "name": "bilinearsampler297", 
      "inputs": [[553, 0, 0], [574, 0, 0]]
    }, 
    {
      "op": "_mul_scalar", 
      "name": "_mulscalar302", 
      "attr": {"scalar": "-1.0"}, 
      "inputs": [[557, 6, 0]]
    }, 
    {
      "op": "GridGenerator", 
      "name": "gridgenerator298", 
      "attr": {"transform_type": "warp"}, 
      "inputs": [[576, 0, 0]]
    }, 
    {
      "op": "BilinearSampler", 
      "name": "bilinearsampler298", 
      "inputs": [[553, 0, 0], [577, 0, 0]]
    }, 
    {
      "op": "_mul_scalar", 
      "name": "_mulscalar303", 
      "attr": {"scalar": "-1.0"}, 
      "inputs": [[557, 7, 0]]
    }, 
    {
      "op": "GridGenerator", 
      "name": "gridgenerator299", 
      "attr": {"transform_type": "warp"}, 
      "inputs": [[579, 0, 0]]
    }, 
    {
      "op": "BilinearSampler", 
      "name": "bilinearsampler299", 
      "inputs": [[553, 0, 0], [580, 0, 0]]
    }, 
    {
      "op": "_mul_scalar", 
      "name": "_mulscalar304", 
      "attr": {"scalar": "-1.0"}, 
      "inputs": [[557, 8, 0]]
    }, 
    {
      "op": "GridGenerator", 
      "name": "gridgenerator300", 
      "attr": {"transform_type": "warp"}, 
      "inputs": [[582, 0, 0]]
    }, 
    {
      "op": "BilinearSampler", 
      "name": "bilinearsampler300", 
      "inputs": [[553, 0, 0], [583, 0, 0]]
    }, 
    {
      "op": "Concat", 
      "name": "concat36", 
      "attr": {
        "dim": "1", 
        "num_args": "9"
      }, 
      "inputs": [[560, 0, 0], [563, 0, 0], [566, 0, 0], [569, 0, 0], [572, 0, 0], [575, 0, 0], [578, 0, 0], [581, 0, 0], [584, 0, 0]]
    }, 
    {
      "op": "Convolution", 
      "name": "fbrnn3_0__t13_h2h", 
      "attr": {
        "kernel": "(1, 1)", 
        "num_filter": "576"
      }, 
      "inputs": [[585, 0, 0], [38, 0, 0], [39, 0, 0]]
    }, 
    {
      "op": "SliceChannel", 
      "name": "slicechannel46", 
      "attr": {
        "axis": "1", 
        "num_outputs": "3"
      }, 
      "inputs": [[586, 0, 0]]
    }, 
    {
      "op": "Activation", 
      "name": "fbrnn3_0__t13_u", 
      "attr": {"act_type": "sigmoid"}, 
      "inputs": [[587, 1, 0]]
    }, 
    {
      "op": "elemwise_mul", 
      "name": "_mul85", 
      "inputs": [[588, 0, 0], [553, 0, 0]]
    }, 
    {
      "op": "_rminus_scalar", 
      "name": "_rminusscalar28", 
      "attr": {"scalar": "1"}, 
      "inputs": [[588, 0, 0]]
    }, 
    {
      "op": "Activation", 
      "name": "fbrnn3_0__t13_r", 
      "attr": {"act_type": "sigmoid"}, 
      "inputs": [[587, 0, 0]]
    }, 
    {
      "op": "elemwise_mul", 
      "name": "_mul84", 
      "inputs": [[591, 0, 0], [587, 2, 0]]
    }, 
    {
      "op": "LeakyReLU", 
      "name": "fbrnn3_0__t13_h_leaky", 
      "attr": {"slope": "0.2"}, 
      "inputs": [[592, 0, 0]]
    }, 
    {
      "op": "elemwise_mul", 
      "name": "_mul86", 
      "inputs": [[590, 0, 0], [593, 0, 0]]
    }, 
    {
      "op": "elemwise_add", 
      "name": "_plus88", 
      "inputs": [[589, 0, 0], [594, 0, 0]]
    }, 
    {
      "op": "Convolution", 
      "name": "fbrnn3_0__t14_h2f_conv1", 
      "attr": {
        "dilate": "(1, 1)", 
        "kernel": "(5, 5)", 
        "num_filter": "32", 
        "pad": "(2, 2)"
      }, 
      "inputs": [[595, 0, 0], [2, 0, 0], [3, 0, 0]]
    }, 
    {
      "op": "LeakyReLU", 
      "name": "leakyrelu29", 
      "attr": {"slope": "0.2"}, 
      "inputs": [[596, 0, 0]]
    }, 
    {
      "op": "Convolution", 
      "name": "convolution29", 
      "attr": {
        "kernel": "(5, 5)", 
        "num_filter": "18", 
        "pad": "(2, 2)"
      }, 
      "inputs": [[597, 0, 0], [6, 0, 0], [7, 0, 0]]
    }, 
    {
      "op": "SliceChannel", 
      "name": "split35", 
      "attr": {
        "axis": "1", 
        "num_outputs": "9"
      }, 
      "inputs": [[598, 0, 0]]
    }, 
    {
      "op": "_mul_scalar", 
      "name": "_mulscalar305", 
      "attr": {"scalar": "-1.0"}, 
      "inputs": [[599, 0, 0]]
    }, 
    {
      "op": "GridGenerator", 
      "name": "gridgenerator301", 
      "attr": {"transform_type": "warp"}, 
      "inputs": [[600, 0, 0]]
    }, 
    {
      "op": "BilinearSampler", 
      "name": "bilinearsampler301", 
      "inputs": [[595, 0, 0], [601, 0, 0]]
    }, 
    {
      "op": "_mul_scalar", 
      "name": "_mulscalar306", 
      "attr": {"scalar": "-1.0"}, 
      "inputs": [[599, 1, 0]]
    }, 
    {
      "op": "GridGenerator", 
      "name": "gridgenerator302", 
      "attr": {"transform_type": "warp"}, 
      "inputs": [[603, 0, 0]]
    }, 
    {
      "op": "BilinearSampler", 
      "name": "bilinearsampler302", 
      "inputs": [[595, 0, 0], [604, 0, 0]]
    }, 
    {
      "op": "_mul_scalar", 
      "name": "_mulscalar307", 
      "attr": {"scalar": "-1.0"}, 
      "inputs": [[599, 2, 0]]
    }, 
    {
      "op": "GridGenerator", 
      "name": "gridgenerator303", 
      "attr": {"transform_type": "warp"}, 
      "inputs": [[606, 0, 0]]
    }, 
    {
      "op": "BilinearSampler", 
      "name": "bilinearsampler303", 
      "inputs": [[595, 0, 0], [607, 0, 0]]
    }, 
    {
      "op": "_mul_scalar", 
      "name": "_mulscalar308", 
      "attr": {"scalar": "-1.0"}, 
      "inputs": [[599, 3, 0]]
    }, 
    {
      "op": "GridGenerator", 
      "name": "gridgenerator304", 
      "attr": {"transform_type": "warp"}, 
      "inputs": [[609, 0, 0]]
    }, 
    {
      "op": "BilinearSampler", 
      "name": "bilinearsampler304", 
      "inputs": [[595, 0, 0], [610, 0, 0]]
    }, 
    {
      "op": "_mul_scalar", 
      "name": "_mulscalar309", 
      "attr": {"scalar": "-1.0"}, 
      "inputs": [[599, 4, 0]]
    }, 
    {
      "op": "GridGenerator", 
      "name": "gridgenerator305", 
      "attr": {"transform_type": "warp"}, 
      "inputs": [[612, 0, 0]]
    }, 
    {
      "op": "BilinearSampler", 
      "name": "bilinearsampler305", 
      "inputs": [[595, 0, 0], [613, 0, 0]]
    }, 
    {
      "op": "_mul_scalar", 
      "name": "_mulscalar310", 
      "attr": {"scalar": "-1.0"}, 
      "inputs": [[599, 5, 0]]
    }, 
    {
      "op": "GridGenerator", 
      "name": "gridgenerator306", 
      "attr": {"transform_type": "warp"}, 
      "inputs": [[615, 0, 0]]
    }, 
    {
      "op": "BilinearSampler", 
      "name": "bilinearsampler306", 
      "inputs": [[595, 0, 0], [616, 0, 0]]
    }, 
    {
      "op": "_mul_scalar", 
      "name": "_mulscalar311", 
      "attr": {"scalar": "-1.0"}, 
      "inputs": [[599, 6, 0]]
    }, 
    {
      "op": "GridGenerator", 
      "name": "gridgenerator307", 
      "attr": {"transform_type": "warp"}, 
      "inputs": [[618, 0, 0]]
    }, 
    {
      "op": "BilinearSampler", 
      "name": "bilinearsampler307", 
      "inputs": [[595, 0, 0], [619, 0, 0]]
    }, 
    {
      "op": "_mul_scalar", 
      "name": "_mulscalar312", 
      "attr": {"scalar": "-1.0"}, 
      "inputs": [[599, 7, 0]]
    }, 
    {
      "op": "GridGenerator", 
      "name": "gridgenerator308", 
      "attr": {"transform_type": "warp"}, 
      "inputs": [[621, 0, 0]]
    }, 
    {
      "op": "BilinearSampler", 
      "name": "bilinearsampler308", 
      "inputs": [[595, 0, 0], [622, 0, 0]]
    }, 
    {
      "op": "_mul_scalar", 
      "name": "_mulscalar313", 
      "attr": {"scalar": "-1.0"}, 
      "inputs": [[599, 8, 0]]
    }, 
    {
      "op": "GridGenerator", 
      "name": "gridgenerator309", 
      "attr": {"transform_type": "warp"}, 
      "inputs": [[624, 0, 0]]
    }, 
    {
      "op": "BilinearSampler", 
      "name": "bilinearsampler309", 
      "inputs": [[595, 0, 0], [625, 0, 0]]
    }, 
    {
      "op": "Concat", 
      "name": "concat37", 
      "attr": {
        "dim": "1", 
        "num_args": "9"
      }, 
      "inputs": [[602, 0, 0], [605, 0, 0], [608, 0, 0], [611, 0, 0], [614, 0, 0], [617, 0, 0], [620, 0, 0], [623, 0, 0], [626, 0, 0]]
    }, 
    {
      "op": "Convolution", 
      "name": "fbrnn3_0__t14_h2h", 
      "attr": {
        "kernel": "(1, 1)", 
        "num_filter": "576"
      }, 
      "inputs": [[627, 0, 0], [38, 0, 0], [39, 0, 0]]
    }, 
    {
      "op": "SliceChannel", 
      "name": "slicechannel47", 
      "attr": {
        "axis": "1", 
        "num_outputs": "3"
      }, 
      "inputs": [[628, 0, 0]]
    }, 
    {
      "op": "Activation", 
      "name": "fbrnn3_0__t14_u", 
      "attr": {"act_type": "sigmoid"}, 
      "inputs": [[629, 1, 0]]
    }, 
    {
      "op": "elemwise_mul", 
      "name": "_mul88", 
      "inputs": [[630, 0, 0], [595, 0, 0]]
    }, 
    {
      "op": "_rminus_scalar", 
      "name": "_rminusscalar29", 
      "attr": {"scalar": "1"}, 
      "inputs": [[630, 0, 0]]
    }, 
    {
      "op": "Activation", 
      "name": "fbrnn3_0__t14_r", 
      "attr": {"act_type": "sigmoid"}, 
      "inputs": [[629, 0, 0]]
    }, 
    {
      "op": "elemwise_mul", 
      "name": "_mul87", 
      "inputs": [[633, 0, 0], [629, 2, 0]]
    }, 
    {
      "op": "LeakyReLU", 
      "name": "fbrnn3_0__t14_h_leaky", 
      "attr": {"slope": "0.2"}, 
      "inputs": [[634, 0, 0]]
    }, 
    {
      "op": "elemwise_mul", 
      "name": "_mul89", 
      "inputs": [[632, 0, 0], [635, 0, 0]]
    }, 
    {
      "op": "elemwise_add", 
      "name": "_plus89", 
      "inputs": [[631, 0, 0], [636, 0, 0]]
    }, 
    {
      "op": "Convolution", 
      "name": "fbrnn3_0__t15_h2f_conv1", 
      "attr": {
        "dilate": "(1, 1)", 
        "kernel": "(5, 5)", 
        "num_filter": "32", 
        "pad": "(2, 2)"
      }, 
      "inputs": [[637, 0, 0], [2, 0, 0], [3, 0, 0]]
    }, 
    {
      "op": "LeakyReLU", 
      "name": "leakyrelu30", 
      "attr": {"slope": "0.2"}, 
      "inputs": [[638, 0, 0]]
    }, 
    {
      "op": "Convolution", 
      "name": "convolution30", 
      "attr": {
        "kernel": "(5, 5)", 
        "num_filter": "18", 
        "pad": "(2, 2)"
      }, 
      "inputs": [[639, 0, 0], [6, 0, 0], [7, 0, 0]]
    }, 
    {
      "op": "SliceChannel", 
      "name": "split36", 
      "attr": {
        "axis": "1", 
        "num_outputs": "9"
      }, 
      "inputs": [[640, 0, 0]]
    }, 
    {
      "op": "_mul_scalar", 
      "name": "_mulscalar314", 
      "attr": {"scalar": "-1.0"}, 
      "inputs": [[641, 0, 0]]
    }, 
    {
      "op": "GridGenerator", 
      "name": "gridgenerator310", 
      "attr": {"transform_type": "warp"}, 
      "inputs": [[642, 0, 0]]
    }, 
    {
      "op": "BilinearSampler", 
      "name": "bilinearsampler310", 
      "inputs": [[637, 0, 0], [643, 0, 0]]
    }, 
    {
      "op": "_mul_scalar", 
      "name": "_mulscalar315", 
      "attr": {"scalar": "-1.0"}, 
      "inputs": [[641, 1, 0]]
    }, 
    {
      "op": "GridGenerator", 
      "name": "gridgenerator311", 
      "attr": {"transform_type": "warp"}, 
      "inputs": [[645, 0, 0]]
    }, 
    {
      "op": "BilinearSampler", 
      "name": "bilinearsampler311", 
      "inputs": [[637, 0, 0], [646, 0, 0]]
    }, 
    {
      "op": "_mul_scalar", 
      "name": "_mulscalar316", 
      "attr": {"scalar": "-1.0"}, 
      "inputs": [[641, 2, 0]]
    }, 
    {
      "op": "GridGenerator", 
      "name": "gridgenerator312", 
      "attr": {"transform_type": "warp"}, 
      "inputs": [[648, 0, 0]]
    }, 
    {
      "op": "BilinearSampler", 
      "name": "bilinearsampler312", 
      "inputs": [[637, 0, 0], [649, 0, 0]]
    }, 
    {
      "op": "_mul_scalar", 
      "name": "_mulscalar317", 
      "attr": {"scalar": "-1.0"}, 
      "inputs": [[641, 3, 0]]
    }, 
    {
      "op": "GridGenerator", 
      "name": "gridgenerator313", 
      "attr": {"transform_type": "warp"}, 
      "inputs": [[651, 0, 0]]
    }, 
    {
      "op": "BilinearSampler", 
      "name": "bilinearsampler313", 
      "inputs": [[637, 0, 0], [652, 0, 0]]
    }, 
    {
      "op": "_mul_scalar", 
      "name": "_mulscalar318", 
      "attr": {"scalar": "-1.0"}, 
      "inputs": [[641, 4, 0]]
    }, 
    {
      "op": "GridGenerator", 
      "name": "gridgenerator314", 
      "attr": {"transform_type": "warp"}, 
      "inputs": [[654, 0, 0]]
    }, 
    {
      "op": "BilinearSampler", 
      "name": "bilinearsampler314", 
      "inputs": [[637, 0, 0], [655, 0, 0]]
    }, 
    {
      "op": "_mul_scalar", 
      "name": "_mulscalar319", 
      "attr": {"scalar": "-1.0"}, 
      "inputs": [[641, 5, 0]]
    }, 
    {
      "op": "GridGenerator", 
      "name": "gridgenerator315", 
      "attr": {"transform_type": "warp"}, 
      "inputs": [[657, 0, 0]]
    }, 
    {
      "op": "BilinearSampler", 
      "name": "bilinearsampler315", 
      "inputs": [[637, 0, 0], [658, 0, 0]]
    }, 
    {
      "op": "_mul_scalar", 
      "name": "_mulscalar320", 
      "attr": {"scalar": "-1.0"}, 
      "inputs": [[641, 6, 0]]
    }, 
    {
      "op": "GridGenerator", 
      "name": "gridgenerator316", 
      "attr": {"transform_type": "warp"}, 
      "inputs": [[660, 0, 0]]
    }, 
    {
      "op": "BilinearSampler", 
      "name": "bilinearsampler316", 
      "inputs": [[637, 0, 0], [661, 0, 0]]
    }, 
    {
      "op": "_mul_scalar", 
      "name": "_mulscalar321", 
      "attr": {"scalar": "-1.0"}, 
      "inputs": [[641, 7, 0]]
    }, 
    {
      "op": "GridGenerator", 
      "name": "gridgenerator317", 
      "attr": {"transform_type": "warp"}, 
      "inputs": [[663, 0, 0]]
    }, 
    {
      "op": "BilinearSampler", 
      "name": "bilinearsampler317", 
      "inputs": [[637, 0, 0], [664, 0, 0]]
    }, 
    {
      "op": "_mul_scalar", 
      "name": "_mulscalar322", 
      "attr": {"scalar": "-1.0"}, 
      "inputs": [[641, 8, 0]]
    }, 
    {
      "op": "GridGenerator", 
      "name": "gridgenerator318", 
      "attr": {"transform_type": "warp"}, 
      "inputs": [[666, 0, 0]]
    }, 
    {
      "op": "BilinearSampler", 
      "name": "bilinearsampler318", 
      "inputs": [[637, 0, 0], [667, 0, 0]]
    }, 
    {
      "op": "Concat", 
      "name": "concat38", 
      "attr": {
        "dim": "1", 
        "num_args": "9"
      }, 
      "inputs": [[644, 0, 0], [647, 0, 0], [650, 0, 0], [653, 0, 0], [656, 0, 0], [659, 0, 0], [662, 0, 0], [665, 0, 0], [668, 0, 0]]
    }, 
    {
      "op": "Convolution", 
      "name": "fbrnn3_0__t15_h2h", 
      "attr": {
        "kernel": "(1, 1)", 
        "num_filter": "576"
      }, 
      "inputs": [[669, 0, 0], [38, 0, 0], [39, 0, 0]]
    }, 
    {
      "op": "SliceChannel", 
      "name": "slicechannel48", 
      "attr": {
        "axis": "1", 
        "num_outputs": "3"
      }, 
      "inputs": [[670, 0, 0]]
    }, 
    {
      "op": "Activation", 
      "name": "fbrnn3_0__t15_u", 
      "attr": {"act_type": "sigmoid"}, 
      "inputs": [[671, 1, 0]]
    }, 
    {
      "op": "elemwise_mul", 
      "name": "_mul91", 
      "inputs": [[672, 0, 0], [637, 0, 0]]
    }, 
    {
      "op": "_rminus_scalar", 
      "name": "_rminusscalar30", 
      "attr": {"scalar": "1"}, 
      "inputs": [[672, 0, 0]]
    }, 
    {
      "op": "Activation", 
      "name": "fbrnn3_0__t15_r", 
      "attr": {"act_type": "sigmoid"}, 
      "inputs": [[671, 0, 0]]
    }, 
    {
      "op": "elemwise_mul", 
      "name": "_mul90", 
      "inputs": [[675, 0, 0], [671, 2, 0]]
    }, 
    {
      "op": "LeakyReLU", 
      "name": "fbrnn3_0__t15_h_leaky", 
      "attr": {"slope": "0.2"}, 
      "inputs": [[676, 0, 0]]
    }, 
    {
      "op": "elemwise_mul", 
      "name": "_mul92", 
      "inputs": [[674, 0, 0], [677, 0, 0]]
    }, 
    {
      "op": "elemwise_add", 
      "name": "_plus90", 
      "inputs": [[673, 0, 0], [678, 0, 0]]
    }, 
    {
      "op": "Convolution", 
      "name": "fbrnn3_0__t16_h2f_conv1", 
      "attr": {
        "dilate": "(1, 1)", 
        "kernel": "(5, 5)", 
        "num_filter": "32", 
        "pad": "(2, 2)"
      }, 
      "inputs": [[679, 0, 0], [2, 0, 0], [3, 0, 0]]
    }, 
    {
      "op": "LeakyReLU", 
      "name": "leakyrelu31", 
      "attr": {"slope": "0.2"}, 
      "inputs": [[680, 0, 0]]
    }, 
    {
      "op": "Convolution", 
      "name": "convolution31", 
      "attr": {
        "kernel": "(5, 5)", 
        "num_filter": "18", 
        "pad": "(2, 2)"
      }, 
      "inputs": [[681, 0, 0], [6, 0, 0], [7, 0, 0]]
    }, 
    {
      "op": "SliceChannel", 
      "name": "split37", 
      "attr": {
        "axis": "1", 
        "num_outputs": "9"
      }, 
      "inputs": [[682, 0, 0]]
    }, 
    {
      "op": "_mul_scalar", 
      "name": "_mulscalar323", 
      "attr": {"scalar": "-1.0"}, 
      "inputs": [[683, 0, 0]]
    }, 
    {
      "op": "GridGenerator", 
      "name": "gridgenerator319", 
      "attr": {"transform_type": "warp"}, 
      "inputs": [[684, 0, 0]]
    }, 
    {
      "op": "BilinearSampler", 
      "name": "bilinearsampler319", 
      "inputs": [[679, 0, 0], [685, 0, 0]]
    }, 
    {
      "op": "_mul_scalar", 
      "name": "_mulscalar324", 
      "attr": {"scalar": "-1.0"}, 
      "inputs": [[683, 1, 0]]
    }, 
    {
      "op": "GridGenerator", 
      "name": "gridgenerator320", 
      "attr": {"transform_type": "warp"}, 
      "inputs": [[687, 0, 0]]
    }, 
    {
      "op": "BilinearSampler", 
      "name": "bilinearsampler320", 
      "inputs": [[679, 0, 0], [688, 0, 0]]
    }, 
    {
      "op": "_mul_scalar", 
      "name": "_mulscalar325", 
      "attr": {"scalar": "-1.0"}, 
      "inputs": [[683, 2, 0]]
    }, 
    {
      "op": "GridGenerator", 
      "name": "gridgenerator321", 
      "attr": {"transform_type": "warp"}, 
      "inputs": [[690, 0, 0]]
    }, 
    {
      "op": "BilinearSampler", 
      "name": "bilinearsampler321", 
      "inputs": [[679, 0, 0], [691, 0, 0]]
    }, 
    {
      "op": "_mul_scalar", 
      "name": "_mulscalar326", 
      "attr": {"scalar": "-1.0"}, 
      "inputs": [[683, 3, 0]]
    }, 
    {
      "op": "GridGenerator", 
      "name": "gridgenerator322", 
      "attr": {"transform_type": "warp"}, 
      "inputs": [[693, 0, 0]]
    }, 
    {
      "op": "BilinearSampler", 
      "name": "bilinearsampler322", 
      "inputs": [[679, 0, 0], [694, 0, 0]]
    }, 
    {
      "op": "_mul_scalar", 
      "name": "_mulscalar327", 
      "attr": {"scalar": "-1.0"}, 
      "inputs": [[683, 4, 0]]
    }, 
    {
      "op": "GridGenerator", 
      "name": "gridgenerator323", 
      "attr": {"transform_type": "warp"}, 
      "inputs": [[696, 0, 0]]
    }, 
    {
      "op": "BilinearSampler", 
      "name": "bilinearsampler323", 
      "inputs": [[679, 0, 0], [697, 0, 0]]
    }, 
    {
      "op": "_mul_scalar", 
      "name": "_mulscalar328", 
      "attr": {"scalar": "-1.0"}, 
      "inputs": [[683, 5, 0]]
    }, 
    {
      "op": "GridGenerator", 
      "name": "gridgenerator324", 
      "attr": {"transform_type": "warp"}, 
      "inputs": [[699, 0, 0]]
    }, 
    {
      "op": "BilinearSampler", 
      "name": "bilinearsampler324", 
      "inputs": [[679, 0, 0], [700, 0, 0]]
    }, 
    {
      "op": "_mul_scalar", 
      "name": "_mulscalar329", 
      "attr": {"scalar": "-1.0"}, 
      "inputs": [[683, 6, 0]]
    }, 
    {
      "op": "GridGenerator", 
      "name": "gridgenerator325", 
      "attr": {"transform_type": "warp"}, 
      "inputs": [[702, 0, 0]]
    }, 
    {
      "op": "BilinearSampler", 
      "name": "bilinearsampler325", 
      "inputs": [[679, 0, 0], [703, 0, 0]]
    }, 
    {
      "op": "_mul_scalar", 
      "name": "_mulscalar330", 
      "attr": {"scalar": "-1.0"}, 
      "inputs": [[683, 7, 0]]
    }, 
    {
      "op": "GridGenerator", 
      "name": "gridgenerator326", 
      "attr": {"transform_type": "warp"}, 
      "inputs": [[705, 0, 0]]
    }, 
    {
      "op": "BilinearSampler", 
      "name": "bilinearsampler326", 
      "inputs": [[679, 0, 0], [706, 0, 0]]
    }, 
    {
      "op": "_mul_scalar", 
      "name": "_mulscalar331", 
      "attr": {"scalar": "-1.0"}, 
      "inputs": [[683, 8, 0]]
    }, 
    {
      "op": "GridGenerator", 
      "name": "gridgenerator327", 
      "attr": {"transform_type": "warp"}, 
      "inputs": [[708, 0, 0]]
    }, 
    {
      "op": "BilinearSampler", 
      "name": "bilinearsampler327", 
      "inputs": [[679, 0, 0], [709, 0, 0]]
    }, 
    {
      "op": "Concat", 
      "name": "concat39", 
      "attr": {
        "dim": "1", 
        "num_args": "9"
      }, 
      "inputs": [[686, 0, 0], [689, 0, 0], [692, 0, 0], [695, 0, 0], [698, 0, 0], [701, 0, 0], [704, 0, 0], [707, 0, 0], [710, 0, 0]]
    }, 
    {
      "op": "Convolution", 
      "name": "fbrnn3_0__t16_h2h", 
      "attr": {
        "kernel": "(1, 1)", 
        "num_filter": "576"
      }, 
      "inputs": [[711, 0, 0], [38, 0, 0], [39, 0, 0]]
    }, 
    {
      "op": "SliceChannel", 
      "name": "slicechannel49", 
      "attr": {
        "axis": "1", 
        "num_outputs": "3"
      }, 
      "inputs": [[712, 0, 0]]
    }, 
    {
      "op": "Activation", 
      "name": "fbrnn3_0__t16_u", 
      "attr": {"act_type": "sigmoid"}, 
      "inputs": [[713, 1, 0]]
    }, 
    {
      "op": "elemwise_mul", 
      "name": "_mul94", 
      "inputs": [[714, 0, 0], [679, 0, 0]]
    }, 
    {
      "op": "_rminus_scalar", 
      "name": "_rminusscalar31", 
      "attr": {"scalar": "1"}, 
      "inputs": [[714, 0, 0]]
    }, 
    {
      "op": "Activation", 
      "name": "fbrnn3_0__t16_r", 
      "attr": {"act_type": "sigmoid"}, 
      "inputs": [[713, 0, 0]]
    }, 
    {
      "op": "elemwise_mul", 
      "name": "_mul93", 
      "inputs": [[717, 0, 0], [713, 2, 0]]
    }, 
    {
      "op": "LeakyReLU", 
      "name": "fbrnn3_0__t16_h_leaky", 
      "attr": {"slope": "0.2"}, 
      "inputs": [[718, 0, 0]]
    }, 
    {
      "op": "elemwise_mul", 
      "name": "_mul95", 
      "inputs": [[716, 0, 0], [719, 0, 0]]
    }, 
    {
      "op": "elemwise_add", 
      "name": "_plus91", 
      "inputs": [[715, 0, 0], [720, 0, 0]]
    }, 
    {
      "op": "Convolution", 
      "name": "fbrnn3_0__t17_h2f_conv1", 
      "attr": {
        "dilate": "(1, 1)", 
        "kernel": "(5, 5)", 
        "num_filter": "32", 
        "pad": "(2, 2)"
      }, 
      "inputs": [[721, 0, 0], [2, 0, 0], [3, 0, 0]]
    }, 
    {
      "op": "LeakyReLU", 
      "name": "leakyrelu32", 
      "attr": {"slope": "0.2"}, 
      "inputs": [[722, 0, 0]]
    }, 
    {
      "op": "Convolution", 
      "name": "convolution32", 
      "attr": {
        "kernel": "(5, 5)", 
        "num_filter": "18", 
        "pad": "(2, 2)"
      }, 
      "inputs": [[723, 0, 0], [6, 0, 0], [7, 0, 0]]
    }, 
    {
      "op": "SliceChannel", 
      "name": "split38", 
      "attr": {
        "axis": "1", 
        "num_outputs": "9"
      }, 
      "inputs": [[724, 0, 0]]
    }, 
    {
      "op": "_mul_scalar", 
      "name": "_mulscalar332", 
      "attr": {"scalar": "-1.0"}, 
      "inputs": [[725, 0, 0]]
    }, 
    {
      "op": "GridGenerator", 
      "name": "gridgenerator328", 
      "attr": {"transform_type": "warp"}, 
      "inputs": [[726, 0, 0]]
    }, 
    {
      "op": "BilinearSampler", 
      "name": "bilinearsampler328", 
      "inputs": [[721, 0, 0], [727, 0, 0]]
    }, 
    {
      "op": "_mul_scalar", 
      "name": "_mulscalar333", 
      "attr": {"scalar": "-1.0"}, 
      "inputs": [[725, 1, 0]]
    }, 
    {
      "op": "GridGenerator", 
      "name": "gridgenerator329", 
      "attr": {"transform_type": "warp"}, 
      "inputs": [[729, 0, 0]]
    }, 
    {
      "op": "BilinearSampler", 
      "name": "bilinearsampler329", 
      "inputs": [[721, 0, 0], [730, 0, 0]]
    }, 
    {
      "op": "_mul_scalar", 
      "name": "_mulscalar334", 
      "attr": {"scalar": "-1.0"}, 
      "inputs": [[725, 2, 0]]
    }, 
    {
      "op": "GridGenerator", 
      "name": "gridgenerator330", 
      "attr": {"transform_type": "warp"}, 
      "inputs": [[732, 0, 0]]
    }, 
    {
      "op": "BilinearSampler", 
      "name": "bilinearsampler330", 
      "inputs": [[721, 0, 0], [733, 0, 0]]
    }, 
    {
      "op": "_mul_scalar", 
      "name": "_mulscalar335", 
      "attr": {"scalar": "-1.0"}, 
      "inputs": [[725, 3, 0]]
    }, 
    {
      "op": "GridGenerator", 
      "name": "gridgenerator331", 
      "attr": {"transform_type": "warp"}, 
      "inputs": [[735, 0, 0]]
    }, 
    {
      "op": "BilinearSampler", 
      "name": "bilinearsampler331", 
      "inputs": [[721, 0, 0], [736, 0, 0]]
    }, 
    {
      "op": "_mul_scalar", 
      "name": "_mulscalar336", 
      "attr": {"scalar": "-1.0"}, 
      "inputs": [[725, 4, 0]]
    }, 
    {
      "op": "GridGenerator", 
      "name": "gridgenerator332", 
      "attr": {"transform_type": "warp"}, 
      "inputs": [[738, 0, 0]]
    }, 
    {
      "op": "BilinearSampler", 
      "name": "bilinearsampler332", 
      "inputs": [[721, 0, 0], [739, 0, 0]]
    }, 
    {
      "op": "_mul_scalar", 
      "name": "_mulscalar337", 
      "attr": {"scalar": "-1.0"}, 
      "inputs": [[725, 5, 0]]
    }, 
    {
      "op": "GridGenerator", 
      "name": "gridgenerator333", 
      "attr": {"transform_type": "warp"}, 
      "inputs": [[741, 0, 0]]
    }, 
    {
      "op": "BilinearSampler", 
      "name": "bilinearsampler333", 
      "inputs": [[721, 0, 0], [742, 0, 0]]
    }, 
    {
      "op": "_mul_scalar", 
      "name": "_mulscalar338", 
      "attr": {"scalar": "-1.0"}, 
      "inputs": [[725, 6, 0]]
    }, 
    {
      "op": "GridGenerator", 
      "name": "gridgenerator334", 
      "attr": {"transform_type": "warp"}, 
      "inputs": [[744, 0, 0]]
    }, 
    {
      "op": "BilinearSampler", 
      "name": "bilinearsampler334", 
      "inputs": [[721, 0, 0], [745, 0, 0]]
    }, 
    {
      "op": "_mul_scalar", 
      "name": "_mulscalar339", 
      "attr": {"scalar": "-1.0"}, 
      "inputs": [[725, 7, 0]]
    }, 
    {
      "op": "GridGenerator", 
      "name": "gridgenerator335", 
      "attr": {"transform_type": "warp"}, 
      "inputs": [[747, 0, 0]]
    }, 
    {
      "op": "BilinearSampler", 
      "name": "bilinearsampler335", 
      "inputs": [[721, 0, 0], [748, 0, 0]]
    }, 
    {
      "op": "_mul_scalar", 
      "name": "_mulscalar340", 
      "attr": {"scalar": "-1.0"}, 
      "inputs": [[725, 8, 0]]
    }, 
    {
      "op": "GridGenerator", 
      "name": "gridgenerator336", 
      "attr": {"transform_type": "warp"}, 
      "inputs": [[750, 0, 0]]
    }, 
    {
      "op": "BilinearSampler", 
      "name": "bilinearsampler336", 
      "inputs": [[721, 0, 0], [751, 0, 0]]
    }, 
    {
      "op": "Concat", 
      "name": "concat40", 
      "attr": {
        "dim": "1", 
        "num_args": "9"
      }, 
      "inputs": [[728, 0, 0], [731, 0, 0], [734, 0, 0], [737, 0, 0], [740, 0, 0], [743, 0, 0], [746, 0, 0], [749, 0, 0], [752, 0, 0]]
    }, 
    {
      "op": "Convolution", 
      "name": "fbrnn3_0__t17_h2h", 
      "attr": {
        "kernel": "(1, 1)", 
        "num_filter": "576"
      }, 
      "inputs": [[753, 0, 0], [38, 0, 0], [39, 0, 0]]
    }, 
    {
      "op": "SliceChannel", 
      "name": "slicechannel50", 
      "attr": {
        "axis": "1", 
        "num_outputs": "3"
      }, 
      "inputs": [[754, 0, 0]]
    }, 
    {
      "op": "Activation", 
      "name": "fbrnn3_0__t17_u", 
      "attr": {"act_type": "sigmoid"}, 
      "inputs": [[755, 1, 0]]
    }, 
    {
      "op": "elemwise_mul", 
      "name": "_mul97", 
      "inputs": [[756, 0, 0], [721, 0, 0]]
    }, 
    {
      "op": "_rminus_scalar", 
      "name": "_rminusscalar32", 
      "attr": {"scalar": "1"}, 
      "inputs": [[756, 0, 0]]
    }, 
    {
      "op": "Activation", 
      "name": "fbrnn3_0__t17_r", 
      "attr": {"act_type": "sigmoid"}, 
      "inputs": [[755, 0, 0]]
    }, 
    {
      "op": "elemwise_mul", 
      "name": "_mul96", 
      "inputs": [[759, 0, 0], [755, 2, 0]]
    }, 
    {
      "op": "LeakyReLU", 
      "name": "fbrnn3_0__t17_h_leaky", 
      "attr": {"slope": "0.2"}, 
      "inputs": [[760, 0, 0]]
    }, 
    {
      "op": "elemwise_mul", 
      "name": "_mul98", 
      "inputs": [[758, 0, 0], [761, 0, 0]]
    }, 
    {
      "op": "elemwise_add", 
      "name": "_plus92", 
      "inputs": [[757, 0, 0], [762, 0, 0]]
    }, 
    {
      "op": "Convolution", 
      "name": "fbrnn3_0__t18_h2f_conv1", 
      "attr": {
        "dilate": "(1, 1)", 
        "kernel": "(5, 5)", 
        "num_filter": "32", 
        "pad": "(2, 2)"
      }, 
      "inputs": [[763, 0, 0], [2, 0, 0], [3, 0, 0]]
    }, 
    {
      "op": "LeakyReLU", 
      "name": "leakyrelu33", 
      "attr": {"slope": "0.2"}, 
      "inputs": [[764, 0, 0]]
    }, 
    {
      "op": "Convolution", 
      "name": "convolution33", 
      "attr": {
        "kernel": "(5, 5)", 
        "num_filter": "18", 
        "pad": "(2, 2)"
      }, 
      "inputs": [[765, 0, 0], [6, 0, 0], [7, 0, 0]]
    }, 
    {
      "op": "SliceChannel", 
      "name": "split39", 
      "attr": {
        "axis": "1", 
        "num_outputs": "9"
      }, 
      "inputs": [[766, 0, 0]]
    }, 
    {
      "op": "_mul_scalar", 
      "name": "_mulscalar341", 
      "attr": {"scalar": "-1.0"}, 
      "inputs": [[767, 0, 0]]
    }, 
    {
      "op": "GridGenerator", 
      "name": "gridgenerator337", 
      "attr": {"transform_type": "warp"}, 
      "inputs": [[768, 0, 0]]
    }, 
    {
      "op": "BilinearSampler", 
      "name": "bilinearsampler337", 
      "inputs": [[763, 0, 0], [769, 0, 0]]
    }, 
    {
      "op": "_mul_scalar", 
      "name": "_mulscalar342", 
      "attr": {"scalar": "-1.0"}, 
      "inputs": [[767, 1, 0]]
    }, 
    {
      "op": "GridGenerator", 
      "name": "gridgenerator338", 
      "attr": {"transform_type": "warp"}, 
      "inputs": [[771, 0, 0]]
    }, 
    {
      "op": "BilinearSampler", 
      "name": "bilinearsampler338", 
      "inputs": [[763, 0, 0], [772, 0, 0]]
    }, 
    {
      "op": "_mul_scalar", 
      "name": "_mulscalar343", 
      "attr": {"scalar": "-1.0"}, 
      "inputs": [[767, 2, 0]]
    }, 
    {
      "op": "GridGenerator", 
      "name": "gridgenerator339", 
      "attr": {"transform_type": "warp"}, 
      "inputs": [[774, 0, 0]]
    }, 
    {
      "op": "BilinearSampler", 
      "name": "bilinearsampler339", 
      "inputs": [[763, 0, 0], [775, 0, 0]]
    }, 
    {
      "op": "_mul_scalar", 
      "name": "_mulscalar344", 
      "attr": {"scalar": "-1.0"}, 
      "inputs": [[767, 3, 0]]
    }, 
    {
      "op": "GridGenerator", 
      "name": "gridgenerator340", 
      "attr": {"transform_type": "warp"}, 
      "inputs": [[777, 0, 0]]
    }, 
    {
      "op": "BilinearSampler", 
      "name": "bilinearsampler340", 
      "inputs": [[763, 0, 0], [778, 0, 0]]
    }, 
    {
      "op": "_mul_scalar", 
      "name": "_mulscalar345", 
      "attr": {"scalar": "-1.0"}, 
      "inputs": [[767, 4, 0]]
    }, 
    {
      "op": "GridGenerator", 
      "name": "gridgenerator341", 
      "attr": {"transform_type": "warp"}, 
      "inputs": [[780, 0, 0]]
    }, 
    {
      "op": "BilinearSampler", 
      "name": "bilinearsampler341", 
      "inputs": [[763, 0, 0], [781, 0, 0]]
    }, 
    {
      "op": "_mul_scalar", 
      "name": "_mulscalar346", 
      "attr": {"scalar": "-1.0"}, 
      "inputs": [[767, 5, 0]]
    }, 
    {
      "op": "GridGenerator", 
      "name": "gridgenerator342", 
      "attr": {"transform_type": "warp"}, 
      "inputs": [[783, 0, 0]]
    }, 
    {
      "op": "BilinearSampler", 
      "name": "bilinearsampler342", 
      "inputs": [[763, 0, 0], [784, 0, 0]]
    }, 
    {
      "op": "_mul_scalar", 
      "name": "_mulscalar347", 
      "attr": {"scalar": "-1.0"}, 
      "inputs": [[767, 6, 0]]
    }, 
    {
      "op": "GridGenerator", 
      "name": "gridgenerator343", 
      "attr": {"transform_type": "warp"}, 
      "inputs": [[786, 0, 0]]
    }, 
    {
      "op": "BilinearSampler", 
      "name": "bilinearsampler343", 
      "inputs": [[763, 0, 0], [787, 0, 0]]
    }, 
    {
      "op": "_mul_scalar", 
      "name": "_mulscalar348", 
      "attr": {"scalar": "-1.0"}, 
      "inputs": [[767, 7, 0]]
    }, 
    {
      "op": "GridGenerator", 
      "name": "gridgenerator344", 
      "attr": {"transform_type": "warp"}, 
      "inputs": [[789, 0, 0]]
    }, 
    {
      "op": "BilinearSampler", 
      "name": "bilinearsampler344", 
      "inputs": [[763, 0, 0], [790, 0, 0]]
    }, 
    {
      "op": "_mul_scalar", 
      "name": "_mulscalar349", 
      "attr": {"scalar": "-1.0"}, 
      "inputs": [[767, 8, 0]]
    }, 
    {
      "op": "GridGenerator", 
      "name": "gridgenerator345", 
      "attr": {"transform_type": "warp"}, 
      "inputs": [[792, 0, 0]]
    }, 
    {
      "op": "BilinearSampler", 
      "name": "bilinearsampler345", 
      "inputs": [[763, 0, 0], [793, 0, 0]]
    }, 
    {
      "op": "Concat", 
      "name": "concat41", 
      "attr": {
        "dim": "1", 
        "num_args": "9"
      }, 
      "inputs": [[770, 0, 0], [773, 0, 0], [776, 0, 0], [779, 0, 0], [782, 0, 0], [785, 0, 0], [788, 0, 0], [791, 0, 0], [794, 0, 0]]
    }, 
    {
      "op": "Convolution", 
      "name": "fbrnn3_0__t18_h2h", 
      "attr": {
        "kernel": "(1, 1)", 
        "num_filter": "576"
      }, 
      "inputs": [[795, 0, 0], [38, 0, 0], [39, 0, 0]]
    }, 
    {
      "op": "SliceChannel", 
      "name": "slicechannel51", 
      "attr": {
        "axis": "1", 
        "num_outputs": "3"
      }, 
      "inputs": [[796, 0, 0]]
    }, 
    {
      "op": "Activation", 
      "name": "fbrnn3_0__t18_u", 
      "attr": {"act_type": "sigmoid"}, 
      "inputs": [[797, 1, 0]]
    }, 
    {
      "op": "elemwise_mul", 
      "name": "_mul100", 
      "inputs": [[798, 0, 0], [763, 0, 0]]
    }, 
    {
      "op": "_rminus_scalar", 
      "name": "_rminusscalar33", 
      "attr": {"scalar": "1"}, 
      "inputs": [[798, 0, 0]]
    }, 
    {
      "op": "Activation", 
      "name": "fbrnn3_0__t18_r", 
      "attr": {"act_type": "sigmoid"}, 
      "inputs": [[797, 0, 0]]
    }, 
    {
      "op": "elemwise_mul", 
      "name": "_mul99", 
      "inputs": [[801, 0, 0], [797, 2, 0]]
    }, 
    {
      "op": "LeakyReLU", 
      "name": "fbrnn3_0__t18_h_leaky", 
      "attr": {"slope": "0.2"}, 
      "inputs": [[802, 0, 0]]
    }, 
    {
      "op": "elemwise_mul", 
      "name": "_mul101", 
      "inputs": [[800, 0, 0], [803, 0, 0]]
    }, 
    {
      "op": "elemwise_add", 
      "name": "_plus93", 
      "inputs": [[799, 0, 0], [804, 0, 0]]
    }, 
    {
      "op": "Convolution", 
      "name": "fbrnn3_0__t19_h2f_conv1", 
      "attr": {
        "dilate": "(1, 1)", 
        "kernel": "(5, 5)", 
        "num_filter": "32", 
        "pad": "(2, 2)"
      }, 
      "inputs": [[805, 0, 0], [2, 0, 0], [3, 0, 0]]
    }, 
    {
      "op": "LeakyReLU", 
      "name": "leakyrelu34", 
      "attr": {"slope": "0.2"}, 
      "inputs": [[806, 0, 0]]
    }, 
    {
      "op": "Convolution", 
      "name": "convolution34", 
      "attr": {
        "kernel": "(5, 5)", 
        "num_filter": "18", 
        "pad": "(2, 2)"
      }, 
      "inputs": [[807, 0, 0], [6, 0, 0], [7, 0, 0]]
    }, 
    {
      "op": "SliceChannel", 
      "name": "split40", 
      "attr": {
        "axis": "1", 
        "num_outputs": "9"
      }, 
      "inputs": [[808, 0, 0]]
    }, 
    {
      "op": "_mul_scalar", 
      "name": "_mulscalar350", 
      "attr": {"scalar": "-1.0"}, 
      "inputs": [[809, 0, 0]]
    }, 
    {
      "op": "GridGenerator", 
      "name": "gridgenerator346", 
      "attr": {"transform_type": "warp"}, 
      "inputs": [[810, 0, 0]]
    }, 
    {
      "op": "BilinearSampler", 
      "name": "bilinearsampler346", 
      "inputs": [[805, 0, 0], [811, 0, 0]]
    }, 
    {
      "op": "_mul_scalar", 
      "name": "_mulscalar351", 
      "attr": {"scalar": "-1.0"}, 
      "inputs": [[809, 1, 0]]
    }, 
    {
      "op": "GridGenerator", 
      "name": "gridgenerator347", 
      "attr": {"transform_type": "warp"}, 
      "inputs": [[813, 0, 0]]
    }, 
    {
      "op": "BilinearSampler", 
      "name": "bilinearsampler347", 
      "inputs": [[805, 0, 0], [814, 0, 0]]
    }, 
    {
      "op": "_mul_scalar", 
      "name": "_mulscalar352", 
      "attr": {"scalar": "-1.0"}, 
      "inputs": [[809, 2, 0]]
    }, 
    {
      "op": "GridGenerator", 
      "name": "gridgenerator348", 
      "attr": {"transform_type": "warp"}, 
      "inputs": [[816, 0, 0]]
    }, 
    {
      "op": "BilinearSampler", 
      "name": "bilinearsampler348", 
      "inputs": [[805, 0, 0], [817, 0, 0]]
    }, 
    {
      "op": "_mul_scalar", 
      "name": "_mulscalar353", 
      "attr": {"scalar": "-1.0"}, 
      "inputs": [[809, 3, 0]]
    }, 
    {
      "op": "GridGenerator", 
      "name": "gridgenerator349", 
      "attr": {"transform_type": "warp"}, 
      "inputs": [[819, 0, 0]]
    }, 
    {
      "op": "BilinearSampler", 
      "name": "bilinearsampler349", 
      "inputs": [[805, 0, 0], [820, 0, 0]]
    }, 
    {
      "op": "_mul_scalar", 
      "name": "_mulscalar354", 
      "attr": {"scalar": "-1.0"}, 
      "inputs": [[809, 4, 0]]
    }, 
    {
      "op": "GridGenerator", 
      "name": "gridgenerator350", 
      "attr": {"transform_type": "warp"}, 
      "inputs": [[822, 0, 0]]
    }, 
    {
      "op": "BilinearSampler", 
      "name": "bilinearsampler350", 
      "inputs": [[805, 0, 0], [823, 0, 0]]
    }, 
    {
      "op": "_mul_scalar", 
      "name": "_mulscalar355", 
      "attr": {"scalar": "-1.0"}, 
      "inputs": [[809, 5, 0]]
    }, 
    {
      "op": "GridGenerator", 
      "name": "gridgenerator351", 
      "attr": {"transform_type": "warp"}, 
      "inputs": [[825, 0, 0]]
    }, 
    {
      "op": "BilinearSampler", 
      "name": "bilinearsampler351", 
      "inputs": [[805, 0, 0], [826, 0, 0]]
    }, 
    {
      "op": "_mul_scalar", 
      "name": "_mulscalar356", 
      "attr": {"scalar": "-1.0"}, 
      "inputs": [[809, 6, 0]]
    }, 
    {
      "op": "GridGenerator", 
      "name": "gridgenerator352", 
      "attr": {"transform_type": "warp"}, 
      "inputs": [[828, 0, 0]]
    }, 
    {
      "op": "BilinearSampler", 
      "name": "bilinearsampler352", 
      "inputs": [[805, 0, 0], [829, 0, 0]]
    }, 
    {
      "op": "_mul_scalar", 
      "name": "_mulscalar357", 
      "attr": {"scalar": "-1.0"}, 
      "inputs": [[809, 7, 0]]
    }, 
    {
      "op": "GridGenerator", 
      "name": "gridgenerator353", 
      "attr": {"transform_type": "warp"}, 
      "inputs": [[831, 0, 0]]
    }, 
    {
      "op": "BilinearSampler", 
      "name": "bilinearsampler353", 
      "inputs": [[805, 0, 0], [832, 0, 0]]
    }, 
    {
      "op": "_mul_scalar", 
      "name": "_mulscalar358", 
      "attr": {"scalar": "-1.0"}, 
      "inputs": [[809, 8, 0]]
    }, 
    {
      "op": "GridGenerator", 
      "name": "gridgenerator354", 
      "attr": {"transform_type": "warp"}, 
      "inputs": [[834, 0, 0]]
    }, 
    {
      "op": "BilinearSampler", 
      "name": "bilinearsampler354", 
      "inputs": [[805, 0, 0], [835, 0, 0]]
    }, 
    {
      "op": "Concat", 
      "name": "concat42", 
      "attr": {
        "dim": "1", 
        "num_args": "9"
      }, 
      "inputs": [[812, 0, 0], [815, 0, 0], [818, 0, 0], [821, 0, 0], [824, 0, 0], [827, 0, 0], [830, 0, 0], [833, 0, 0], [836, 0, 0]]
    }, 
    {
      "op": "Convolution", 
      "name": "fbrnn3_0__t19_h2h", 
      "attr": {
        "kernel": "(1, 1)", 
        "num_filter": "576"
      }, 
      "inputs": [[837, 0, 0], [38, 0, 0], [39, 0, 0]]
    }, 
    {
      "op": "SliceChannel", 
      "name": "slicechannel52", 
      "attr": {
        "axis": "1", 
        "num_outputs": "3"
      }, 
      "inputs": [[838, 0, 0]]
    }, 
    {
      "op": "Activation", 
      "name": "fbrnn3_0__t19_u", 
      "attr": {"act_type": "sigmoid"}, 
      "inputs": [[839, 1, 0]]
    }, 
    {
      "op": "elemwise_mul", 
      "name": "_mul103", 
      "inputs": [[840, 0, 0], [805, 0, 0]]
    }, 
    {
      "op": "_rminus_scalar", 
      "name": "_rminusscalar34", 
      "attr": {"scalar": "1"}, 
      "inputs": [[840, 0, 0]]
    }, 
    {
      "op": "Activation", 
      "name": "fbrnn3_0__t19_r", 
      "attr": {"act_type": "sigmoid"}, 
      "inputs": [[839, 0, 0]]
    }, 
    {
      "op": "elemwise_mul", 
      "name": "_mul102", 
      "inputs": [[843, 0, 0], [839, 2, 0]]
    }, 
    {
      "op": "LeakyReLU", 
      "name": "fbrnn3_0__t19_h_leaky", 
      "attr": {"slope": "0.2"}, 
      "inputs": [[844, 0, 0]]
    }, 
    {
      "op": "elemwise_mul", 
      "name": "_mul104", 
      "inputs": [[842, 0, 0], [845, 0, 0]]
    }, 
    {
      "op": "elemwise_add", 
      "name": "_plus94", 
      "inputs": [[841, 0, 0], [846, 0, 0]]
    }, 
    {
      "op": "Concat", 
      "name": "concat43", 
      "attr": {
        "dim": "0", 
        "num_args": "20"
      }, 
      "inputs": [
        [49, 0, 0], 
        [91, 0, 0], 
        [133, 0, 0], 
        [175, 0, 0], 
        [217, 0, 0], 
        [259, 0, 0], 
        [301, 0, 0], 
        [343, 0, 0], 
        [385, 0, 0], 
        [427, 0, 0], 
        [469, 0, 0], 
        [511, 0, 0], 
        [553, 0, 0], 
        [595, 0, 0], 
        [637, 0, 0], 
        [679, 0, 0], 
        [721, 0, 0], 
        [763, 0, 0], 
        [805, 0, 0], 
        [847, 0, 0]
      ]
    }, 
    {
      "op": "null", 
      "name": "fup2_deconv_weight", 
      "attr": {"__dtype__": "0"}, 
      "inputs": []
    }, 
    {
      "op": "Deconvolution", 
      "name": "fup2_deconv", 
      "attr": {
        "adj": "(0, 0)", 
        "kernel": "(4, 4)", 
        "no_bias": "True", 
        "num_filter": "192", 
        "pad": "(1, 1)", 
        "stride": "(2, 2)"
      }, 
      "inputs": [[848, 0, 0], [849, 0, 0]]
    }, 
    {
      "op": "LeakyReLU", 
      "name": "fup2_deconv_leaky", 
      "attr": {"slope": "0.2"}, 
      "inputs": [[850, 0, 0]]
    }, 
    {
      "op": "SliceChannel", 
      "name": "slicechannel53", 
      "attr": {
        "axis": "0", 
        "num_outputs": "20"
      }, 
      "inputs": [[851, 0, 0]]
    }, 
    {
      "op": "null", 
      "name": "fbrnn2_0_i2h_weight", 
      "attr": {"__lr_mult__": "1.0"}, 
      "inputs": []
    }, 
    {
      "op": "null", 
      "name": "fbrnn2_0_i2h_bias", 
      "attr": {"__lr_mult__": "1.0"}, 
      "inputs": []
    }, 
    {
      "op": "Convolution", 
      "name": "fbrnn2_0__t0_i2h", 
      "attr": {
        "dilate": "(1, 1)", 
        "kernel": "[3, 3]", 
        "num_filter": "576", 
        "pad": "[1, 1]", 
        "stride": "(1, 1)"
      }, 
      "inputs": [[852, 0, 0], [853, 0, 0], [854, 0, 0]]
    }, 
    {
      "op": "SliceChannel", 
      "name": "slicechannel54", 
      "attr": {
        "axis": "1", 
        "num_outputs": "3"
      }, 
      "inputs": [[855, 0, 0]]
    }, 
    {
      "op": "null", 
      "name": "fbrnn2_begin_state_h", 
      "attr": {
        "__layout__": "NCHW", 
        "__shape__": "(2, 192, 32, 32)"
      }, 
      "inputs": []
    }, 
    {
      "op": "SliceChannel", 
      "name": "split19", 
      "attr": {
        "axis": "1", 
        "num_outputs": "1"
      }, 
      "inputs": [[857, 0, 0]]
    }, 
    {
      "op": "null", 
      "name": "fbrnn2_0_i2f_conv1_weight", 
      "attr": {"__lr_mult__": "1.0"}, 
      "inputs": []
    }, 
    {
      "op": "null", 
      "name": "fbrnn2_0_i2f_conv1_bias", 
      "attr": {"__lr_mult__": "1.0"}, 
      "inputs": []
    }, 
    {
      "op": "Convolution", 
      "name": "fbrnn2_0__t0_i2f_conv1", 
      "attr": {
        "dilate": "(1, 1)", 
        "kernel": "(5, 5)", 
        "num_filter": "32", 
        "pad": "(2, 2)"
      }, 
      "inputs": [[852, 0, 0], [859, 0, 0], [860, 0, 0]]
    }, 
    {
      "op": "null", 
      "name": "fbrnn2_0_h2f_conv1_weight", 
      "attr": {"__lr_mult__": "1.0"}, 
      "inputs": []
    }, 
    {
      "op": "null", 
      "name": "fbrnn2_0_h2f_conv1_bias", 
      "attr": {"__lr_mult__": "1.0"}, 
      "inputs": []
    }, 
    {
      "op": "Convolution", 
      "name": "fbrnn2_0__t0_h2f_conv1", 
      "attr": {
        "dilate": "(1, 1)", 
        "kernel": "(5, 5)", 
        "num_filter": "32", 
        "pad": "(2, 2)"
      }, 
      "inputs": [[858, 0, 0], [862, 0, 0], [863, 0, 0]]
    }, 
    {
      "op": "elemwise_add", 
      "name": "_plus95", 
      "inputs": [[861, 0, 0], [864, 0, 0]]
    }, 
    {
      "op": "LeakyReLU", 
      "name": "leakyrelu35", 
      "attr": {"slope": "0.2"}, 
      "inputs": [[865, 0, 0]]
    }, 
    {
      "op": "null", 
      "name": "fbrnn2_0_f_out_weight", 
      "attr": {
        "__init__": "[\"zero\", {}]", 
        "__lr_mult__": "1.0"
      }, 
      "inputs": []
    }, 
    {
      "op": "null", 
      "name": "fbrnn2_0_f_out_bias", 
      "attr": {
        "__init__": "[\"zero\", {}]", 
        "__lr_mult__": "1.0"
      }, 
      "inputs": []
    }, 
    {
      "op": "Convolution", 
      "name": "convolution35", 
      "attr": {
        "kernel": "(5, 5)", 
        "num_filter": "26", 
        "pad": "(2, 2)"
      }, 
      "inputs": [[866, 0, 0], [867, 0, 0], [868, 0, 0]]
    }, 
    {
      "op": "SliceChannel", 
      "name": "split41", 
      "attr": {
        "axis": "1", 
        "num_outputs": "13"
      }, 
      "inputs": [[869, 0, 0]]
    }, 
    {
      "op": "_mul_scalar", 
      "name": "_mulscalar359", 
      "attr": {"scalar": "-1.0"}, 
      "inputs": [[870, 0, 0]]
    }, 
    {
      "op": "GridGenerator", 
      "name": "gridgenerator355", 
      "attr": {"transform_type": "warp"}, 
      "inputs": [[871, 0, 0]]
    }, 
    {
      "op": "BilinearSampler", 
      "name": "bilinearsampler355", 
      "inputs": [[858, 0, 0], [872, 0, 0]]
    }, 
    {
      "op": "_mul_scalar", 
      "name": "_mulscalar360", 
      "attr": {"scalar": "-1.0"}, 
      "inputs": [[870, 1, 0]]
    }, 
    {
      "op": "GridGenerator", 
      "name": "gridgenerator356", 
      "attr": {"transform_type": "warp"}, 
      "inputs": [[874, 0, 0]]
    }, 
    {
      "op": "BilinearSampler", 
      "name": "bilinearsampler356", 
      "inputs": [[858, 0, 0], [875, 0, 0]]
    }, 
    {
      "op": "_mul_scalar", 
      "name": "_mulscalar361", 
      "attr": {"scalar": "-1.0"}, 
      "inputs": [[870, 2, 0]]
    }, 
    {
      "op": "GridGenerator", 
      "name": "gridgenerator357", 
      "attr": {"transform_type": "warp"}, 
      "inputs": [[877, 0, 0]]
    }, 
    {
      "op": "BilinearSampler", 
      "name": "bilinearsampler357", 
      "inputs": [[858, 0, 0], [878, 0, 0]]
    }, 
    {
      "op": "_mul_scalar", 
      "name": "_mulscalar362", 
      "attr": {"scalar": "-1.0"}, 
      "inputs": [[870, 3, 0]]
    }, 
    {
      "op": "GridGenerator", 
      "name": "gridgenerator358", 
      "attr": {"transform_type": "warp"}, 
      "inputs": [[880, 0, 0]]
    }, 
    {
      "op": "BilinearSampler", 
      "name": "bilinearsampler358", 
      "inputs": [[858, 0, 0], [881, 0, 0]]
    }, 
    {
      "op": "_mul_scalar", 
      "name": "_mulscalar363", 
      "attr": {"scalar": "-1.0"}, 
      "inputs": [[870, 4, 0]]
    }, 
    {
      "op": "GridGenerator", 
      "name": "gridgenerator359", 
      "attr": {"transform_type": "warp"}, 
      "inputs": [[883, 0, 0]]
    }, 
    {
      "op": "BilinearSampler", 
      "name": "bilinearsampler359", 
      "inputs": [[858, 0, 0], [884, 0, 0]]
    }, 
    {
      "op": "_mul_scalar", 
      "name": "_mulscalar364", 
      "attr": {"scalar": "-1.0"}, 
      "inputs": [[870, 5, 0]]
    }, 
    {
      "op": "GridGenerator", 
      "name": "gridgenerator360", 
      "attr": {"transform_type": "warp"}, 
      "inputs": [[886, 0, 0]]
    }, 
    {
      "op": "BilinearSampler", 
      "name": "bilinearsampler360", 
      "inputs": [[858, 0, 0], [887, 0, 0]]
    }, 
    {
      "op": "_mul_scalar", 
      "name": "_mulscalar365", 
      "attr": {"scalar": "-1.0"}, 
      "inputs": [[870, 6, 0]]
    }, 
    {
      "op": "GridGenerator", 
      "name": "gridgenerator361", 
      "attr": {"transform_type": "warp"}, 
      "inputs": [[889, 0, 0]]
    }, 
    {
      "op": "BilinearSampler", 
      "name": "bilinearsampler361", 
      "inputs": [[858, 0, 0], [890, 0, 0]]
    }, 
    {
      "op": "_mul_scalar", 
      "name": "_mulscalar366", 
      "attr": {"scalar": "-1.0"}, 
      "inputs": [[870, 7, 0]]
    }, 
    {
      "op": "GridGenerator", 
      "name": "gridgenerator362", 
      "attr": {"transform_type": "warp"}, 
      "inputs": [[892, 0, 0]]
    }, 
    {
      "op": "BilinearSampler", 
      "name": "bilinearsampler362", 
      "inputs": [[858, 0, 0], [893, 0, 0]]
    }, 
    {
      "op": "_mul_scalar", 
      "name": "_mulscalar367", 
      "attr": {"scalar": "-1.0"}, 
      "inputs": [[870, 8, 0]]
    }, 
    {
      "op": "GridGenerator", 
      "name": "gridgenerator363", 
      "attr": {"transform_type": "warp"}, 
      "inputs": [[895, 0, 0]]
    }, 
    {
      "op": "BilinearSampler", 
      "name": "bilinearsampler363", 
      "inputs": [[858, 0, 0], [896, 0, 0]]
    }, 
    {
      "op": "_mul_scalar", 
      "name": "_mulscalar368", 
      "attr": {"scalar": "-1.0"}, 
      "inputs": [[870, 9, 0]]
    }, 
    {
      "op": "GridGenerator", 
      "name": "gridgenerator364", 
      "attr": {"transform_type": "warp"}, 
      "inputs": [[898, 0, 0]]
    }, 
    {
      "op": "BilinearSampler", 
      "name": "bilinearsampler364", 
      "inputs": [[858, 0, 0], [899, 0, 0]]
    }, 
    {
      "op": "_mul_scalar", 
      "name": "_mulscalar369", 
      "attr": {"scalar": "-1.0"}, 
      "inputs": [[870, 10, 0]]
    }, 
    {
      "op": "GridGenerator", 
      "name": "gridgenerator365", 
      "attr": {"transform_type": "warp"}, 
      "inputs": [[901, 0, 0]]
    }, 
    {
      "op": "BilinearSampler", 
      "name": "bilinearsampler365", 
      "inputs": [[858, 0, 0], [902, 0, 0]]
    }, 
    {
      "op": "_mul_scalar", 
      "name": "_mulscalar370", 
      "attr": {"scalar": "-1.0"}, 
      "inputs": [[870, 11, 0]]
    }, 
    {
      "op": "GridGenerator", 
      "name": "gridgenerator366", 
      "attr": {"transform_type": "warp"}, 
      "inputs": [[904, 0, 0]]
    }, 
    {
      "op": "BilinearSampler", 
      "name": "bilinearsampler366", 
      "inputs": [[858, 0, 0], [905, 0, 0]]
    }, 
    {
      "op": "_mul_scalar", 
      "name": "_mulscalar371", 
      "attr": {"scalar": "-1.0"}, 
      "inputs": [[870, 12, 0]]
    }, 
    {
      "op": "GridGenerator", 
      "name": "gridgenerator367", 
      "attr": {"transform_type": "warp"}, 
      "inputs": [[907, 0, 0]]
    }, 
    {
      "op": "BilinearSampler", 
      "name": "bilinearsampler367", 
      "inputs": [[858, 0, 0], [908, 0, 0]]
    }, 
    {
      "op": "Concat", 
      "name": "concat44", 
      "attr": {
        "dim": "1", 
        "num_args": "13"
      }, 
      "inputs": [
        [873, 0, 0], 
        [876, 0, 0], 
        [879, 0, 0], 
        [882, 0, 0], 
        [885, 0, 0], 
        [888, 0, 0], 
        [891, 0, 0], 
        [894, 0, 0], 
        [897, 0, 0], 
        [900, 0, 0], 
        [903, 0, 0], 
        [906, 0, 0], 
        [909, 0, 0]
      ]
    }, 
    {
      "op": "null", 
      "name": "fbrnn2_0_h2h_weight", 
      "attr": {"__lr_mult__": "1.0"}, 
      "inputs": []
    }, 
    {
      "op": "null", 
      "name": "fbrnn2_0_h2h_bias", 
      "attr": {"__lr_mult__": "1.0"}, 
      "inputs": []
    }, 
    {
      "op": "Convolution", 
      "name": "fbrnn2_0__t0_h2h", 
      "attr": {
        "kernel": "(1, 1)", 
        "num_filter": "576"
      }, 
      "inputs": [[910, 0, 0], [911, 0, 0], [912, 0, 0]]
    }, 
    {
      "op": "SliceChannel", 
      "name": "slicechannel55", 
      "attr": {
        "axis": "1", 
        "num_outputs": "3"
      }, 
      "inputs": [[913, 0, 0]]
    }, 
    {
      "op": "elemwise_add", 
      "name": "_plus97", 
      "inputs": [[856, 1, 0], [914, 1, 0]]
    }, 
    {
      "op": "Activation", 
      "name": "fbrnn2_0__t0_u", 
      "attr": {"act_type": "sigmoid"}, 
      "inputs": [[915, 0, 0]]
    }, 
    {
      "op": "elemwise_mul", 
      "name": "_mul106", 
      "inputs": [[916, 0, 0], [858, 0, 0]]
    }, 
    {
      "op": "_rminus_scalar", 
      "name": "_rminusscalar35", 
      "attr": {"scalar": "1"}, 
      "inputs": [[916, 0, 0]]
    }, 
    {
      "op": "elemwise_add", 
      "name": "_plus96", 
      "inputs": [[856, 0, 0], [914, 0, 0]]
    }, 
    {
      "op": "Activation", 
      "name": "fbrnn2_0__t0_r", 
      "attr": {"act_type": "sigmoid"}, 
      "inputs": [[919, 0, 0]]
    }, 
    {
      "op": "elemwise_mul", 
      "name": "_mul105", 
      "inputs": [[920, 0, 0], [914, 2, 0]]
    }, 
    {
      "op": "elemwise_add", 
      "name": "_plus98", 
      "inputs": [[856, 2, 0], [921, 0, 0]]
    }, 
    {
      "op": "LeakyReLU", 
      "name": "fbrnn2_0__t0_h_leaky", 
      "attr": {"slope": "0.2"}, 
      "inputs": [[922, 0, 0]]
    }, 
    {
      "op": "elemwise_mul", 
      "name": "_mul107", 
      "inputs": [[918, 0, 0], [923, 0, 0]]
    }, 
    {
      "op": "elemwise_add", 
      "name": "_plus99", 
      "inputs": [[917, 0, 0], [924, 0, 0]]
    }, 
    {
      "op": "Convolution", 
      "name": "fbrnn2_0__t1_i2h", 
      "attr": {
        "dilate": "(1, 1)", 
        "kernel": "[3, 3]", 
        "num_filter": "576", 
        "pad": "[1, 1]", 
        "stride": "(1, 1)"
      }, 
      "inputs": [[852, 1, 0], [853, 0, 0], [854, 0, 0]]
    }, 
    {
      "op": "SliceChannel", 
      "name": "slicechannel56", 
      "attr": {
        "axis": "1", 
        "num_outputs": "3"
      }, 
      "inputs": [[926, 0, 0]]
    }, 
    {
      "op": "Convolution", 
      "name": "fbrnn2_0__t1_i2f_conv1", 
      "attr": {
        "dilate": "(1, 1)", 
        "kernel": "(5, 5)", 
        "num_filter": "32", 
        "pad": "(2, 2)"
      }, 
      "inputs": [[852, 1, 0], [859, 0, 0], [860, 0, 0]]
    }, 
    {
      "op": "Convolution", 
      "name": "fbrnn2_0__t1_h2f_conv1", 
      "attr": {
        "dilate": "(1, 1)", 
        "kernel": "(5, 5)", 
        "num_filter": "32", 
        "pad": "(2, 2)"
      }, 
      "inputs": [[925, 0, 0], [862, 0, 0], [863, 0, 0]]
    }, 
    {
      "op": "elemwise_add", 
      "name": "_plus100", 
      "inputs": [[928, 0, 0], [929, 0, 0]]
    }, 
    {
      "op": "LeakyReLU", 
      "name": "leakyrelu36", 
      "attr": {"slope": "0.2"}, 
      "inputs": [[930, 0, 0]]
    }, 
    {
      "op": "Convolution", 
      "name": "convolution36", 
      "attr": {
        "kernel": "(5, 5)", 
        "num_filter": "26", 
        "pad": "(2, 2)"
      }, 
      "inputs": [[931, 0, 0], [867, 0, 0], [868, 0, 0]]
    }, 
    {
      "op": "SliceChannel", 
      "name": "split42", 
      "attr": {
        "axis": "1", 
        "num_outputs": "13"
      }, 
      "inputs": [[932, 0, 0]]
    }, 
    {
      "op": "_mul_scalar", 
      "name": "_mulscalar372", 
      "attr": {"scalar": "-1.0"}, 
      "inputs": [[933, 0, 0]]
    }, 
    {
      "op": "GridGenerator", 
      "name": "gridgenerator368", 
      "attr": {"transform_type": "warp"}, 
      "inputs": [[934, 0, 0]]
    }, 
    {
      "op": "BilinearSampler", 
      "name": "bilinearsampler368", 
      "inputs": [[925, 0, 0], [935, 0, 0]]
    }, 
    {
      "op": "_mul_scalar", 
      "name": "_mulscalar373", 
      "attr": {"scalar": "-1.0"}, 
      "inputs": [[933, 1, 0]]
    }, 
    {
      "op": "GridGenerator", 
      "name": "gridgenerator369", 
      "attr": {"transform_type": "warp"}, 
      "inputs": [[937, 0, 0]]
    }, 
    {
      "op": "BilinearSampler", 
      "name": "bilinearsampler369", 
      "inputs": [[925, 0, 0], [938, 0, 0]]
    }, 
    {
      "op": "_mul_scalar", 
      "name": "_mulscalar374", 
      "attr": {"scalar": "-1.0"}, 
      "inputs": [[933, 2, 0]]
    }, 
    {
      "op": "GridGenerator", 
      "name": "gridgenerator370", 
      "attr": {"transform_type": "warp"}, 
      "inputs": [[940, 0, 0]]
    }, 
    {
      "op": "BilinearSampler", 
      "name": "bilinearsampler370", 
      "inputs": [[925, 0, 0], [941, 0, 0]]
    }, 
    {
      "op": "_mul_scalar", 
      "name": "_mulscalar375", 
      "attr": {"scalar": "-1.0"}, 
      "inputs": [[933, 3, 0]]
    }, 
    {
      "op": "GridGenerator", 
      "name": "gridgenerator371", 
      "attr": {"transform_type": "warp"}, 
      "inputs": [[943, 0, 0]]
    }, 
    {
      "op": "BilinearSampler", 
      "name": "bilinearsampler371", 
      "inputs": [[925, 0, 0], [944, 0, 0]]
    }, 
    {
      "op": "_mul_scalar", 
      "name": "_mulscalar376", 
      "attr": {"scalar": "-1.0"}, 
      "inputs": [[933, 4, 0]]
    }, 
    {
      "op": "GridGenerator", 
      "name": "gridgenerator372", 
      "attr": {"transform_type": "warp"}, 
      "inputs": [[946, 0, 0]]
    }, 
    {
      "op": "BilinearSampler", 
      "name": "bilinearsampler372", 
      "inputs": [[925, 0, 0], [947, 0, 0]]
    }, 
    {
      "op": "_mul_scalar", 
      "name": "_mulscalar377", 
      "attr": {"scalar": "-1.0"}, 
      "inputs": [[933, 5, 0]]
    }, 
    {
      "op": "GridGenerator", 
      "name": "gridgenerator373", 
      "attr": {"transform_type": "warp"}, 
      "inputs": [[949, 0, 0]]
    }, 
    {
      "op": "BilinearSampler", 
      "name": "bilinearsampler373", 
      "inputs": [[925, 0, 0], [950, 0, 0]]
    }, 
    {
      "op": "_mul_scalar", 
      "name": "_mulscalar378", 
      "attr": {"scalar": "-1.0"}, 
      "inputs": [[933, 6, 0]]
    }, 
    {
      "op": "GridGenerator", 
      "name": "gridgenerator374", 
      "attr": {"transform_type": "warp"}, 
      "inputs": [[952, 0, 0]]
    }, 
    {
      "op": "BilinearSampler", 
      "name": "bilinearsampler374", 
      "inputs": [[925, 0, 0], [953, 0, 0]]
    }, 
    {
      "op": "_mul_scalar", 
      "name": "_mulscalar379", 
      "attr": {"scalar": "-1.0"}, 
      "inputs": [[933, 7, 0]]
    }, 
    {
      "op": "GridGenerator", 
      "name": "gridgenerator375", 
      "attr": {"transform_type": "warp"}, 
      "inputs": [[955, 0, 0]]
    }, 
    {
      "op": "BilinearSampler", 
      "name": "bilinearsampler375", 
      "inputs": [[925, 0, 0], [956, 0, 0]]
    }, 
    {
      "op": "_mul_scalar", 
      "name": "_mulscalar380", 
      "attr": {"scalar": "-1.0"}, 
      "inputs": [[933, 8, 0]]
    }, 
    {
      "op": "GridGenerator", 
      "name": "gridgenerator376", 
      "attr": {"transform_type": "warp"}, 
      "inputs": [[958, 0, 0]]
    }, 
    {
      "op": "BilinearSampler", 
      "name": "bilinearsampler376", 
      "inputs": [[925, 0, 0], [959, 0, 0]]
    }, 
    {
      "op": "_mul_scalar", 
      "name": "_mulscalar381", 
      "attr": {"scalar": "-1.0"}, 
      "inputs": [[933, 9, 0]]
    }, 
    {
      "op": "GridGenerator", 
      "name": "gridgenerator377", 
      "attr": {"transform_type": "warp"}, 
      "inputs": [[961, 0, 0]]
    }, 
    {
      "op": "BilinearSampler", 
      "name": "bilinearsampler377", 
      "inputs": [[925, 0, 0], [962, 0, 0]]
    }, 
    {
      "op": "_mul_scalar", 
      "name": "_mulscalar382", 
      "attr": {"scalar": "-1.0"}, 
      "inputs": [[933, 10, 0]]
    }, 
    {
      "op": "GridGenerator", 
      "name": "gridgenerator378", 
      "attr": {"transform_type": "warp"}, 
      "inputs": [[964, 0, 0]]
    }, 
    {
      "op": "BilinearSampler", 
      "name": "bilinearsampler378", 
      "inputs": [[925, 0, 0], [965, 0, 0]]
    }, 
    {
      "op": "_mul_scalar", 
      "name": "_mulscalar383", 
      "attr": {"scalar": "-1.0"}, 
      "inputs": [[933, 11, 0]]
    }, 
    {
      "op": "GridGenerator", 
      "name": "gridgenerator379", 
      "attr": {"transform_type": "warp"}, 
      "inputs": [[967, 0, 0]]
    }, 
    {
      "op": "BilinearSampler", 
      "name": "bilinearsampler379", 
      "inputs": [[925, 0, 0], [968, 0, 0]]
    }, 
    {
      "op": "_mul_scalar", 
      "name": "_mulscalar384", 
      "attr": {"scalar": "-1.0"}, 
      "inputs": [[933, 12, 0]]
    }, 
    {
      "op": "GridGenerator", 
      "name": "gridgenerator380", 
      "attr": {"transform_type": "warp"}, 
      "inputs": [[970, 0, 0]]
    }, 
    {
      "op": "BilinearSampler", 
      "name": "bilinearsampler380", 
      "inputs": [[925, 0, 0], [971, 0, 0]]
    }, 
    {
      "op": "Concat", 
      "name": "concat45", 
      "attr": {
        "dim": "1", 
        "num_args": "13"
      }, 
      "inputs": [
        [936, 0, 0], 
        [939, 0, 0], 
        [942, 0, 0], 
        [945, 0, 0], 
        [948, 0, 0], 
        [951, 0, 0], 
        [954, 0, 0], 
        [957, 0, 0], 
        [960, 0, 0], 
        [963, 0, 0], 
        [966, 0, 0], 
        [969, 0, 0], 
        [972, 0, 0]
      ]
    }, 
    {
      "op": "Convolution", 
      "name": "fbrnn2_0__t1_h2h", 
      "attr": {
        "kernel": "(1, 1)", 
        "num_filter": "576"
      }, 
      "inputs": [[973, 0, 0], [911, 0, 0], [912, 0, 0]]
    }, 
    {
      "op": "SliceChannel", 
      "name": "slicechannel57", 
      "attr": {
        "axis": "1", 
        "num_outputs": "3"
      }, 
      "inputs": [[974, 0, 0]]
    }, 
    {
      "op": "elemwise_add", 
      "name": "_plus102", 
      "inputs": [[927, 1, 0], [975, 1, 0]]
    }, 
    {
      "op": "Activation", 
      "name": "fbrnn2_0__t1_u", 
      "attr": {"act_type": "sigmoid"}, 
      "inputs": [[976, 0, 0]]
    }, 
    {
      "op": "elemwise_mul", 
      "name": "_mul109", 
      "inputs": [[977, 0, 0], [925, 0, 0]]
    }, 
    {
      "op": "_rminus_scalar", 
      "name": "_rminusscalar36", 
      "attr": {"scalar": "1"}, 
      "inputs": [[977, 0, 0]]
    }, 
    {
      "op": "elemwise_add", 
      "name": "_plus101", 
      "inputs": [[927, 0, 0], [975, 0, 0]]
    }, 
    {
      "op": "Activation", 
      "name": "fbrnn2_0__t1_r", 
      "attr": {"act_type": "sigmoid"}, 
      "inputs": [[980, 0, 0]]
    }, 
    {
      "op": "elemwise_mul", 
      "name": "_mul108", 
      "inputs": [[981, 0, 0], [975, 2, 0]]
    }, 
    {
      "op": "elemwise_add", 
      "name": "_plus103", 
      "inputs": [[927, 2, 0], [982, 0, 0]]
    }, 
    {
      "op": "LeakyReLU", 
      "name": "fbrnn2_0__t1_h_leaky", 
      "attr": {"slope": "0.2"}, 
      "inputs": [[983, 0, 0]]
    }, 
    {
      "op": "elemwise_mul", 
      "name": "_mul110", 
      "inputs": [[979, 0, 0], [984, 0, 0]]
    }, 
    {
      "op": "elemwise_add", 
      "name": "_plus104", 
      "inputs": [[978, 0, 0], [985, 0, 0]]
    }, 
    {
      "op": "Convolution", 
      "name": "fbrnn2_0__t2_i2h", 
      "attr": {
        "dilate": "(1, 1)", 
        "kernel": "[3, 3]", 
        "num_filter": "576", 
        "pad": "[1, 1]", 
        "stride": "(1, 1)"
      }, 
      "inputs": [[852, 2, 0], [853, 0, 0], [854, 0, 0]]
    }, 
    {
      "op": "SliceChannel", 
      "name": "slicechannel58", 
      "attr": {
        "axis": "1", 
        "num_outputs": "3"
      }, 
      "inputs": [[987, 0, 0]]
    }, 
    {
      "op": "Convolution", 
      "name": "fbrnn2_0__t2_i2f_conv1", 
      "attr": {
        "dilate": "(1, 1)", 
        "kernel": "(5, 5)", 
        "num_filter": "32", 
        "pad": "(2, 2)"
      }, 
      "inputs": [[852, 2, 0], [859, 0, 0], [860, 0, 0]]
    }, 
    {
      "op": "Convolution", 
      "name": "fbrnn2_0__t2_h2f_conv1", 
      "attr": {
        "dilate": "(1, 1)", 
        "kernel": "(5, 5)", 
        "num_filter": "32", 
        "pad": "(2, 2)"
      }, 
      "inputs": [[986, 0, 0], [862, 0, 0], [863, 0, 0]]
    }, 
    {
      "op": "elemwise_add", 
      "name": "_plus105", 
      "inputs": [[989, 0, 0], [990, 0, 0]]
    }, 
    {
      "op": "LeakyReLU", 
      "name": "leakyrelu37", 
      "attr": {"slope": "0.2"}, 
      "inputs": [[991, 0, 0]]
    }, 
    {
      "op": "Convolution", 
      "name": "convolution37", 
      "attr": {
        "kernel": "(5, 5)", 
        "num_filter": "26", 
        "pad": "(2, 2)"
      }, 
      "inputs": [[992, 0, 0], [867, 0, 0], [868, 0, 0]]
    }, 
    {
      "op": "SliceChannel", 
      "name": "split43", 
      "attr": {
        "axis": "1", 
        "num_outputs": "13"
      }, 
      "inputs": [[993, 0, 0]]
    }, 
    {
      "op": "_mul_scalar", 
      "name": "_mulscalar385", 
      "attr": {"scalar": "-1.0"}, 
      "inputs": [[994, 0, 0]]
    }, 
    {
      "op": "GridGenerator", 
      "name": "gridgenerator381", 
      "attr": {"transform_type": "warp"}, 
      "inputs": [[995, 0, 0]]
    }, 
    {
      "op": "BilinearSampler", 
      "name": "bilinearsampler381", 
      "inputs": [[986, 0, 0], [996, 0, 0]]
    }, 
    {
…
    }, 
    {
      "op": "Activation", 
      "name": "fbrnn1_0__t18_u", 
      "attr": {"act_type": "sigmoid"}, 
      "inputs": [[3250, 0, 0]]
    }, 
    {
      "op": "elemwise_mul", 
      "name": "_mul220", 
      "inputs": [[3251, 0, 0], [3199, 0, 0]]
    }, 
    {
      "op": "_rminus_scalar", 
      "name": "_rminusscalar73", 
      "attr": {"scalar": "1"}, 
      "inputs": [[3251, 0, 0]]
    }, 
    {
      "op": "elemwise_add", 
      "name": "_plus286", 
      "inputs": [[3201, 0, 0], [3249, 0, 0]]
    }, 
    {
      "op": "Activation", 
      "name": "fbrnn1_0__t18_r", 
      "attr": {"act_type": "sigmoid"}, 
      "inputs": [[3254, 0, 0]]
    }, 
    {
      "op": "elemwise_mul", 
      "name": "_mul219", 
      "inputs": [[3255, 0, 0], [3249, 2, 0]]
    }, 
    {
      "op": "elemwise_add", 
      "name": "_plus288", 
      "inputs": [[3201, 2, 0], [3256, 0, 0]]
    }, 
    {
      "op": "LeakyReLU", 
      "name": "fbrnn1_0__t18_h_leaky", 
      "attr": {"slope": "0.2"}, 
      "inputs": [[3257, 0, 0]]
    }, 
    {
      "op": "elemwise_mul", 
      "name": "_mul221", 
      "inputs": [[3253, 0, 0], [3258, 0, 0]]
    }, 
    {
      "op": "elemwise_add", 
      "name": "_plus289", 
      "inputs": [[3252, 0, 0], [3259, 0, 0]]
    }, 
    {
      "op": "Convolution", 
      "name": "fbrnn1_0__t19_i2h", 
      "attr": {
        "dilate": "(1, 1)", 
        "kernel": "[3, 3]", 
        "num_filter": "192", 
        "pad": "[1, 1]", 
        "stride": "(1, 1)"
      }, 
      "inputs": [[2089, 19, 0], [2090, 0, 0], [2091, 0, 0]]
    }, 
    {
      "op": "SliceChannel", 
      "name": "slicechannel133", 
      "attr": {
        "axis": "1", 
        "num_outputs": "3"
      }, 
      "inputs": [[3261, 0, 0]]
    }, 
    {
      "op": "Convolution", 
      "name": "fbrnn1_0__t19_i2f_conv1", 
      "attr": {
        "dilate": "(1, 1)", 
        "kernel": "(5, 5)", 
        "num_filter": "32", 
        "pad": "(2, 2)"
      }, 
      "inputs": [[2089, 19, 0], [2096, 0, 0], [2097, 0, 0]]
    }, 
    {
      "op": "Convolution", 
      "name": "fbrnn1_0__t19_h2f_conv1", 
      "attr": {
        "dilate": "(1, 1)", 
        "kernel": "(5, 5)", 
        "num_filter": "32", 
        "pad": "(2, 2)"
      }, 
      "inputs": [[3260, 0, 0], [2099, 0, 0], [2100, 0, 0]]
    }, 
    {
      "op": "elemwise_add", 
      "name": "_plus290", 
      "inputs": [[3263, 0, 0], [3264, 0, 0]]
    }, 
    {
      "op": "LeakyReLU", 
      "name": "leakyrelu74", 
      "attr": {"slope": "0.2"}, 
      "inputs": [[3265, 0, 0]]
    }, 
    {
      "op": "Convolution", 
      "name": "convolution74", 
      "attr": {
        "kernel": "(5, 5)", 
        "num_filter": "26", 
        "pad": "(2, 2)"
      }, 
      "inputs": [[3266, 0, 0], [2104, 0, 0], [2105, 0, 0]]
    }, 
    {
      "op": "SliceChannel", 
      "name": "split80", 
      "attr": {
        "axis": "1", 
        "num_outputs": "13"
      }, 
      "inputs": [[3267, 0, 0]]
    }, 
    {
      "op": "_mul_scalar", 
      "name": "_mulscalar866", 
      "attr": {"scalar": "-1.0"}, 
      "inputs": [[3268, 0, 0]]
    }, 
    {
      "op": "GridGenerator", 
      "name": "gridgenerator862", 
      "attr": {"transform_type": "warp"}, 
      "inputs": [[3269, 0, 0]]
    }, 
    {
      "op": "BilinearSampler", 
      "name": "bilinearsampler862", 
      "inputs": [[3260, 0, 0], [3270, 0, 0]]
    }, 
    {
      "op": "_mul_scalar", 
      "name": "_mulscalar867", 
      "attr": {"scalar": "-1.0"}, 
      "inputs": [[3268, 1, 0]]
    }, 
    {
      "op": "GridGenerator", 
      "name": "gridgenerator863", 
      "attr": {"transform_type": "warp"}, 
      "inputs": [[3272, 0, 0]]
    }, 
    {
      "op": "BilinearSampler", 
      "name": "bilinearsampler863", 
      "inputs": [[3260, 0, 0], [3273, 0, 0]]
    }, 
    {
      "op": "_mul_scalar", 
      "name": "_mulscalar868", 
      "attr": {"scalar": "-1.0"}, 
      "inputs": [[3268, 2, 0]]
    }, 
    {
      "op": "GridGenerator", 
      "name": "gridgenerator864", 
      "attr": {"transform_type": "warp"}, 
      "inputs": [[3275, 0, 0]]
    }, 
    {
      "op": "BilinearSampler", 
      "name": "bilinearsampler864", 
      "inputs": [[3260, 0, 0], [3276, 0, 0]]
    }, 
    {
      "op": "_mul_scalar", 
      "name": "_mulscalar869", 
      "attr": {"scalar": "-1.0"}, 
      "inputs": [[3268, 3, 0]]
    }, 
    {
      "op": "GridGenerator", 
      "name": "gridgenerator865", 
      "attr": {"transform_type": "warp"}, 
      "inputs": [[3278, 0, 0]]
    }, 
    {
      "op": "BilinearSampler", 
      "name": "bilinearsampler865", 
      "inputs": [[3260, 0, 0], [3279, 0, 0]]
    }, 
    {
      "op": "_mul_scalar", 
      "name": "_mulscalar870", 
      "attr": {"scalar": "-1.0"}, 
      "inputs": [[3268, 4, 0]]
    }, 
    {
      "op": "GridGenerator", 
      "name": "gridgenerator866", 
      "attr": {"transform_type": "warp"}, 
      "inputs": [[3281, 0, 0]]
    }, 
    {
      "op": "BilinearSampler", 
      "name": "bilinearsampler866", 
      "inputs": [[3260, 0, 0], [3282, 0, 0]]
    }, 
    {
      "op": "_mul_scalar", 
      "name": "_mulscalar871", 
      "attr": {"scalar": "-1.0"}, 
      "inputs": [[3268, 5, 0]]
    }, 
    {
      "op": "GridGenerator", 
      "name": "gridgenerator867", 
      "attr": {"transform_type": "warp"}, 
      "inputs": [[3284, 0, 0]]
    }, 
    {
      "op": "BilinearSampler", 
      "name": "bilinearsampler867", 
      "inputs": [[3260, 0, 0], [3285, 0, 0]]
    }, 
    {
      "op": "_mul_scalar", 
      "name": "_mulscalar872", 
      "attr": {"scalar": "-1.0"}, 
      "inputs": [[3268, 6, 0]]
    }, 
    {
      "op": "GridGenerator", 
      "name": "gridgenerator868", 
      "attr": {"transform_type": "warp"}, 
      "inputs": [[3287, 0, 0]]
    }, 
    {
      "op": "BilinearSampler", 
      "name": "bilinearsampler868", 
      "inputs": [[3260, 0, 0], [3288, 0, 0]]
    }, 
    {
      "op": "_mul_scalar", 
      "name": "_mulscalar873", 
      "attr": {"scalar": "-1.0"}, 
      "inputs": [[3268, 7, 0]]
    }, 
    {
      "op": "GridGenerator", 
      "name": "gridgenerator869", 
      "attr": {"transform_type": "warp"}, 
      "inputs": [[3290, 0, 0]]
    }, 
    {
      "op": "BilinearSampler", 
      "name": "bilinearsampler869", 
      "inputs": [[3260, 0, 0], [3291, 0, 0]]
    }, 
    {
      "op": "_mul_scalar", 
      "name": "_mulscalar874", 
      "attr": {"scalar": "-1.0"}, 
      "inputs": [[3268, 8, 0]]
    }, 
    {
      "op": "GridGenerator", 
      "name": "gridgenerator870", 
      "attr": {"transform_type": "warp"}, 
      "inputs": [[3293, 0, 0]]
    }, 
    {
      "op": "BilinearSampler", 
      "name": "bilinearsampler870", 
      "inputs": [[3260, 0, 0], [3294, 0, 0]]
    }, 
    {
      "op": "_mul_scalar", 
      "name": "_mulscalar875", 
      "attr": {"scalar": "-1.0"}, 
      "inputs": [[3268, 9, 0]]
    }, 
    {
      "op": "GridGenerator", 
      "name": "gridgenerator871", 
      "attr": {"transform_type": "warp"}, 
      "inputs": [[3296, 0, 0]]
    }, 
    {
      "op": "BilinearSampler", 
      "name": "bilinearsampler871", 
      "inputs": [[3260, 0, 0], [3297, 0, 0]]
    }, 
    {
      "op": "_mul_scalar", 
      "name": "_mulscalar876", 
      "attr": {"scalar": "-1.0"}, 
      "inputs": [[3268, 10, 0]]
    }, 
    {
      "op": "GridGenerator", 
      "name": "gridgenerator872", 
      "attr": {"transform_type": "warp"}, 
      "inputs": [[3299, 0, 0]]
    }, 
    {
      "op": "BilinearSampler", 
      "name": "bilinearsampler872", 
      "inputs": [[3260, 0, 0], [3300, 0, 0]]
    }, 
    {
      "op": "_mul_scalar", 
      "name": "_mulscalar877", 
      "attr": {"scalar": "-1.0"}, 
      "inputs": [[3268, 11, 0]]
    }, 
    {
      "op": "GridGenerator", 
      "name": "gridgenerator873", 
      "attr": {"transform_type": "warp"}, 
      "inputs": [[3302, 0, 0]]
    }, 
    {
      "op": "BilinearSampler", 
      "name": "bilinearsampler873", 
      "inputs": [[3260, 0, 0], [3303, 0, 0]]
    }, 
    {
      "op": "_mul_scalar", 
      "name": "_mulscalar878", 
      "attr": {"scalar": "-1.0"}, 
      "inputs": [[3268, 12, 0]]
    }, 
    {
      "op": "GridGenerator", 
      "name": "gridgenerator874", 
      "attr": {"transform_type": "warp"}, 
      "inputs": [[3305, 0, 0]]
    }, 
    {
      "op": "BilinearSampler", 
      "name": "bilinearsampler874", 
      "inputs": [[3260, 0, 0], [3306, 0, 0]]
    }, 
    {
      "op": "Concat", 
      "name": "concat84", 
      "attr": {
        "dim": "1", 
        "num_args": "13"
      }, 
      "inputs": [
        [3271, 0, 0], 
        [3274, 0, 0], 
        [3277, 0, 0], 
        [3280, 0, 0], 
        [3283, 0, 0], 
        [3286, 0, 0], 
        [3289, 0, 0], 
        [3292, 0, 0], 
        [3295, 0, 0], 
        [3298, 0, 0], 
        [3301, 0, 0], 
        [3304, 0, 0], 
        [3307, 0, 0]
      ]
    }, 
    {
      "op": "Convolution", 
      "name": "fbrnn1_0__t19_h2h", 
      "attr": {
        "kernel": "(1, 1)", 
        "num_filter": "192"
      }, 
      "inputs": [[3308, 0, 0], [2148, 0, 0], [2149, 0, 0]]
    }, 
    {
      "op": "SliceChannel", 
      "name": "slicechannel134", 
      "attr": {
        "axis": "1", 
        "num_outputs": "3"
      }, 
      "inputs": [[3309, 0, 0]]
    }, 
    {
      "op": "elemwise_add", 
      "name": "_plus292", 
      "inputs": [[3262, 1, 0], [3310, 1, 0]]
    }, 
    {
      "op": "Activation", 
      "name": "fbrnn1_0__t19_u", 
      "attr": {"act_type": "sigmoid"}, 
      "inputs": [[3311, 0, 0]]
    }, 
    {
      "op": "elemwise_mul", 
      "name": "_mul223", 
      "inputs": [[3312, 0, 0], [3260, 0, 0]]
    }, 
    {
      "op": "_rminus_scalar", 
      "name": "_rminusscalar74", 
      "attr": {"scalar": "1"}, 
      "inputs": [[3312, 0, 0]]
    }, 
    {
      "op": "elemwise_add", 
      "name": "_plus291", 
      "inputs": [[3262, 0, 0], [3310, 0, 0]]
    }, 
    {
      "op": "Activation", 
      "name": "fbrnn1_0__t19_r", 
      "attr": {"act_type": "sigmoid"}, 
      "inputs": [[3315, 0, 0]]
    }, 
    {
      "op": "elemwise_mul", 
      "name": "_mul222", 
      "inputs": [[3316, 0, 0], [3310, 2, 0]]
    }, 
    {
      "op": "elemwise_add", 
      "name": "_plus293", 
      "inputs": [[3262, 2, 0], [3317, 0, 0]]
    }, 
    {
      "op": "LeakyReLU", 
      "name": "fbrnn1_0__t19_h_leaky", 
      "attr": {"slope": "0.2"}, 
      "inputs": [[3318, 0, 0]]
    }, 
    {
      "op": "elemwise_mul", 
      "name": "_mul224", 
      "inputs": [[3314, 0, 0], [3319, 0, 0]]
    }, 
    {
      "op": "elemwise_add", 
      "name": "_plus294", 
      "inputs": [[3313, 0, 0], [3320, 0, 0]]
    }, 
    {
      "op": "Concat", 
      "name": "concat85", 
      "attr": {
        "dim": "0", 
        "num_args": "20"
      }, 
      "inputs": [
        [2162, 0, 0], 
        [2223, 0, 0], 
        [2284, 0, 0], 
        [2345, 0, 0], 
        [2406, 0, 0], 
        [2467, 0, 0], 
        [2528, 0, 0], 
        [2589, 0, 0], 
        [2650, 0, 0], 
        [2711, 0, 0], 
        [2772, 0, 0], 
        [2833, 0, 0], 
        [2894, 0, 0], 
        [2955, 0, 0], 
        [3016, 0, 0], 
        [3077, 0, 0], 
        [3138, 0, 0], 
        [3199, 0, 0], 
        [3260, 0, 0], 
        [3321, 0, 0]
      ]
    }, 
    {
      "op": "null", 
      "name": "fdeconv1_weight", 
      "attr": {"__dtype__": "0"}, 
      "inputs": []
    }, 
    {
      "op": "Deconvolution", 
      "name": "fdeconv1", 
      "attr": {
        "adj": "(0, 0)", 
        "kernel": "(7, 7)", 
        "no_bias": "True", 
        "num_filter": "8", 
        "pad": "(1, 1)", 
        "stride": "(5, 5)"
      }, 
      "inputs": [[3322, 0, 0], [3323, 0, 0]]
    }, 
    {
      "op": "LeakyReLU", 
      "name": "fdeconv1_leaky", 
      "attr": {"slope": "0.2"}, 
      "inputs": [[3324, 0, 0]]
    }, 
    {
      "op": "null", 
      "name": "conv_final_weight", 
      "attr": {"__dtype__": "0"}, 
      "inputs": []
    }, 
    {
      "op": "null", 
      "name": "conv_final_bias", 
      "attr": {
        "__dtype__": "0", 
        "__wd_mult__": "0.0"
      }, 
      "inputs": []
    }, 
    {
      "op": "Convolution", 
      "name": "conv_final", 
      "attr": {
        "dilate": "(1, 1)", 
        "kernel": "(3, 3)", 
        "no_bias": "False", 
        "num_filter": "8", 
        "pad": "(1, 1)", 
        "stride": "(1, 1)", 
        "workspace": "256"
      }, 
      "inputs": [[3325, 0, 0], [3326, 0, 0], [3327, 0, 0]]
    }, 
    {
      "op": "LeakyReLU", 
      "name": "conv_final_leaky", 
      "attr": {"slope": "0.2"}, 
      "inputs": [[3328, 0, 0]]
    }, 
    {
      "op": "null", 
      "name": "out_weight", 
      "attr": {"__dtype__": "0"}, 
      "inputs": []
    }, 
    {
      "op": "null", 
      "name": "out_bias", 
      "attr": {
        "__dtype__": "0", 
        "__wd_mult__": "0.0"
      }, 
      "inputs": []
    }, 
    {
      "op": "Convolution", 
      "name": "out", 
      "attr": {
        "dilate": "(1, 1)", 
        "kernel": "(1, 1)", 
        "no_bias": "False", 
        "num_filter": "1", 
        "pad": "(0, 0)", 
        "stride": "(1, 1)", 
        "workspace": "256"
      }, 
      "inputs": [[3329, 0, 0], [3330, 0, 0], [3331, 0, 0]]
    }, 
    {
      "op": "Reshape", 
      "name": "reshape5", 
      "attr": {
        "__layout__": "TNCHW", 
        "shape": "(20, 2, 1, 480, 480)"
      }, 
      "inputs": [[3332, 0, 0]]
    }
  ], 
  "arg_nodes": [
    0, 
    2, 
    3, 
    6, 
    7, 
    38, 
    39, 
    849, 
    853, 
    854, 
    857, 
    859, 
    860, 
    862, 
    863, 
    867, 
    868, 
    911, 
    912, 
    2086, 
    2090, 
    2091, 
    2094, 
    2096, 
    2097, 
    2099, 
    2100, 
    2104, 
    2105, 
    2148, 
    2149, 
    3323, 
    3326, 
    3327, 
    3330, 
    3331
  ], 
  "node_row_ptr": [
    0, 
    1, 
    2, 
    3, 
    4, 
    5, 
    6, 
    7, 
    8, 
    9, 
    18, 
    19, 
    21, 
    23, 
    24, 
    26, 
    28, 
    29, 
    31, 
    33, 
    34, 
    36, 
    38, 
    39, 
    41, 
    43, 
    44, 
    46, 
    48, 
    49, 
    51, 
    53, 
    54, 
    56, 
    58, 
    59, 
    61, 
    63, 
    64, 
    65, 
    66, 
    67, 
    70, 
    71, 
    72, 
    73, 
    74, 
    75, 
    76, 
    77, 
    78, 
    79, 
    80, 
    81, 
    90, 
    91, 
    93, 
    95, 
    96, 
    98, 
    100, 
    101, 
    103, 
    105, 
    106, 
    108, 
    110, 
    111, 
    113, 
    115, 
    116, 
    118, 
    120, 
    121, 
    123, 
    125, 
    126, 
    128, 
    130, 
    131, 
    133, 
    135, 
    136, 
    137, 
    140, 
    141, 
    142, 
    143, 
    144, 
    145, 
    146, 
    147, 
    148, 
    149, 
    150, 
    151, 
    160, 
    161, 
    163, 
    165, 
    166, 
    168, 
    170, 
    171, 
    173, 
    175, 
    176, 
    178, 
    180, 
    181, 
    183, 
    185, 
    186, 
    188, 
    190, 
    191, 
    193, 
    195, 
    196, 
    198, 
    200, 
    201, 
    203, 
    205, 
    206, 
    207, 
    210, 
    211, 
    212, 
    213, 
    214, 
    215, 
    216, 
    217, 
    218, 
    219, 
    220, 
    221, 
    230, 
    231, 
    233, 
    235, 
    236, 
    238, 
    240, 
    241, 
    243, 
    245, 
    246, 
    248, 
    250, 
    251, 
    253, 
    255, 
    256, 
    258, 
    260, 
    261, 
    263, 
    265, 
    266, 
    268, 
    270, 
    271, 
    273, 
    275, 
    276, 
    277, 
    280, 
    281, 
    282, 
    283, 
    284, 
    285, 
    286, 
    287, 
    288, 
    289, 
    290, 
    291, 
    300, 
    301, 
    303, 
    305, 
    306, 
    308, 
    310, 
    311, 
    313, 
    315, 
    316, 
    318, 
    320, 
    321, 
    323, 
    325, 
    326, 
    328, 
    330, 
    331, 
    333, 
    335, 
    336, 
    338, 
    340, 
    341, 
    343, 
    345, 
    346, 
    347, 
    350, 
    351, 
    352, 
    353, 
    354, 
    355, 
    356, 
    357, 
    358, 
    359, 
    360, 
    361, 
    370, 
    371, 
    373, 
    375, 
    376, 
    378, 
    380, 
    381, 
    383, 
    385, 
    386, 
    388, 
    390, 
    391, 
    393, 
    395, 
    396, 
    398, 
    400, 
    401, 
    403, 
    405, 
    406, 
    408, 
    410, 
    411, 
    413, 
    415, 
    416, 
    417, 
    420, 
    421, 
    422, 
    423, 
    424, 
    425, 
    426, 
    427, 
    428, 
    429, 
    430, 
    431, 
    440, 
    441, 
    443, 
    445, 
    446, 
    448, 
    450, 
    451, 
    453, 
    455, 
    456, 
    458, 
    460, 
    461, 
    463, 
    465, 
    466, 
    468, 
    470, 
    471, 
    473, 
    475, 
    476, 
    478, 
    480, 
    481, 
    483, 
    485, 
    486, 
    487, 
    490, 
    491, 
    492, 
    493, 
    494, 
    495, 
    496, 
    497, 
    498, 
    499, 
    500, 
    501, 
    510, 
    511, 
    513, 
    515, 
    516, 
    518, 
    520, 
    521, 
    523, 
    525, 
    526, 
    528, 
    530, 
    531, 
    533, 
    535, 
    536, 
    538, 
    540, 
    541, 
    543, 
    545, 
    546, 
    548, 
    550, 
    551, 
    553, 
    555, 
    556, 
    557, 
    560, 
    561, 
    562, 
    563, 
    564, 
    565, 
    566, 
    567, 
    568, 
    569, 
    570, 
    571, 
    580, 
    581, 
    583, 
    585, 
    586, 
    588, 
    590, 
    591, 
    593, 
    595, 
    596, 
    598, 
    600, 
    601, 
    603, 
    605, 
    606, 
    608, 
    610, 
    611, 
    613, 
    615, 
    616, 
    618, 
    620, 
    621, 
    623, 
    625, 
    626, 
    627, 
    630, 
    631, 
    632, 
    633, 
    634, 
    635, 
    636, 
    637, 
    638, 
    639, 
    640, 
    641, 
    650, 
    651, 
    653, 
    655, 
    656, 
    658, 
    660, 
    661, 
    663, 
    665, 
    666, 
    668, 
    670, 
    671, 
    673, 
    675, 
    676, 
    678, 
    680, 
    681, 
    683, 
    685, 
    686, 
    688, 
    690, 
    691, 
    693, 
    695, 
    696, 
    697, 
    700, 
    701, 
    702, 
    703, 
    704, 
    705, 
    706, 
    707, 
    708, 
    709, 
    710, 
    711, 
    720, 
    721, 
    723, 
    725, 
    726, 
    728, 
    730, 
    731, 
    733, 
    735, 
    736, 
    738, 
    740, 
    741, 
    743, 
    745, 
    746, 
    748, 
    750, 
    751, 
    753, 
    755, 
    756, 
    758, 
    760, 
    761, 
    763, 
    765, 
    766, 
    767, 
    770, 
    771, 
    772, 
    773, 
    774, 
    775, 
    776, 
    777, 
    778, 
    779, 
    780, 
    781, 
    790, 
    791, 
    793, 
    795, 
    796, 
    798, 
    800, 
    801, 
    803, 
    805, 
    806, 
    808, 
    810, 
    811, 
    813, 
    815, 
    816, 
    818, 
    820, 
    821, 
    823, 
    825, 
    826, 
    828, 
    830, 
    831, 
    833, 
    835, 
    836, 
    837, 
    840, 
    841, 
    842, 
    843, 
    844, 
    845, 
    846, 
    847, 
    848, 
    849, 
    850, 
    851, 
    860, 
    861, 
    863, 
    865, 
    866, 
    868, 
    870, 
    871, 
    873, 
    875, 
    876, 
    878, 
    880, 
    881, 
    883, 
    885, 
    886, 
    888, 
    890, 
    891, 
    893, 
    895, 
    896, 
    898, 
    900, 
    901, 
    903, 
    905, 
    906, 
    907, 
    910, 
    911, 
    912, 
    913, 
    914, 
    915, 
    916, 
    917, 
    918, 
    919, 
    920, 
    921, 
    930, 
    931, 
    933, 
    935, 
    936, 
    938, 
    940, 
    941, 
    943, 
    945, 
    946, 
    948, 
    950, 
    951, 
    953, 
    955, 
    956, 
    958, 
    960, 
    961, 
    963, 
    965, 
    966, 
    968, 
    970, 
    971, 
    973, 
    975, 
    976, 
    977, 
    980, 
    981, 
    982, 
    983, 
    984, 
    985, 
    986, 
    987, 
    988, 
    989, 
    990, 
    991, 
    1000, 
    1001, 
    1003, 
    1005, 
    1006, 
    1008, 
    1010, 
    1011, 
    1013, 
    1015, 
    1016, 
    1018, 
    1020, 
    1021, 
    1023, 
    1025, 
    1026, 
    1028, 
    1030, 
    1031, 
    1033, 
    1035, 
    1036, 
    1038, 
    1040, 
    1041, 
    1043, 
    1045, 
    1046, 
    1047, 
    1050, 
    1051, 
    1052, 
    1053, 
    1054, 
    1055, 
    1056, 
    1057, 
    1058, 
    1059, 
    1060, 
    1061, 
    1070, 
    1071, 
    1073, 
    1075, 
    1076, 
    1078, 
    1080, 
    1081, 
    1083, 
    1085, 
    1086, 
    1088, 
    1090, 
    1091, 
    1093, 
    1095, 
    1096, 
    1098, 
    1100, 
    1101, 
    1103, 
    1105, 
    1106, 
    1108, 
    1110, 
    1111, 
    1113, 
    1115, 
    1116, 
    1117, 
    1120, 
    1121, 
    1122, 
    1123, 
    1124, 
    1125, 
    1126, 
    1127, 
    1128, 
    1129, 
    1130, 
    1131, 
    1140, 
    1141, 
    1143, 
    1145, 
    1146, 
    1148, 
    1150, 
    1151, 
    1153, 
    1155, 
    1156, 
    1158, 
    1160, 
    1161, 
    1163, 
    1165, 
    1166, 
    1168, 
    1170, 
    1171, 
    1173, 
    1175, 
    1176, 
    1178, 
    1180, 
    1181, 
    1183, 
    1185, 
    1186, 
    1187, 
    1190, 
    1191, 
    1192, 
    1193, 
    1194, 
    1195, 
    1196, 
    1197, 
    1198, 
    1199, 
    1200, 
    1201, 
    1210, 
    1211, 
    1213, 
    1215, 
    1216, 
    1218, 
    1220, 
    1221, 
    1223, 
    1225, 
    1226, 
    1228, 
    1230, 
    1231, 
    1233, 
    1235, 
    1236, 
    1238, 
    1240, 
    1241, 
    1243, 
    1245, 
    1246, 
    1248, 
    1250, 
    1251, 
    1253, 
    1255, 
    1256, 
    1257, 
    1260, 
    1261, 
    1262, 
    1263, 
    1264, 
    1265, 
    1266, 
    1267, 
    1268, 
    1269, 
    1270, 
    1271, 
    1280, 
    1281, 
    1283, 
    1285, 
    1286, 
    1288, 
    1290, 
    1291, 
    1293, 
    1295, 
    1296, 
    1298, 
    1300, 
    1301, 
    1303, 
    1305, 
    1306, 
    1308, 
    1310, 
    1311, 
    1313, 
    1315, 
    1316, 
    1318, 
    1320, 
    1321, 
    1323, 
    1325, 
    1326, 
    1327, 
    1330, 
    1331, 
    1332, 
    1333, 
    1334, 
    1335, 
    1336, 
    1337, 
    1338, 
    1339, 
    1340, 
    1341, 
    1350, 
    1351, 
    1353, 
    1355, 
    1356, 
    1358, 
    1360, 
    1361, 
    1363, 
    1365, 
    1366, 
    1368, 
    1370, 
    1371, 
    1373, 
    1375, 
    1376, 
    1378, 
    1380, 
    1381, 
    1383, 
    1385, 
    1386, 
    1388, 
    1390, 
    1391, 
    1393, 
    1395, 
    1396, 
    1397, 
    1400, 
    1401, 
    1402, 
    1403, 
    1404, 
    1405, 
    1406, 
    1407, 
    1408, 
    1409, 
    1410, 
    1411, 
    1412, 
    1432, 
    1433, 
    1434, 
    1435, 
    1438, 
    1439, 
    1440, 
    1441, 
    1442, 
    1443, 
    1444, 
    1445, 
    1446, 
    1447, 
    1448, 
    1449, 
    1450, 
    1451, 
    1464, 
    1465, 
    1467, 
    1469, 
    1470, 
    1472, 
    1474, 
    1475, 
    1477, 
    1479, 
    1480, 
    1482, 
    1484, 
    1485, 
    1487, 
    1489, 
    1490, 
    1492, 
    1494, 
    1495, 
    1497, 
    1499, 
    1500, 
    1502, 
    1504, 
    1505, 
    1507, 
    1509, 
    1510, 
    1512, 
    1514, 
    1515, 
    1517, 
    1519, 
    1520, 
    1522, 
    1524, 
    1525, 
    1527, 
    1529, 
    1530, 
    1531, 
    1532, 
    1533, 
    1536, 
    1537, 
    1538, 
    1539, 
    1540, 
    1541, 
    1542, 
    1543, 
    1544, 
    1545, 
    1546, 
    1547, 
    1548, 
    1551, 
    1552, 
    1553, 
    1554, 
    1555, 
    1556, 
    1569, 
    1570, 
    1572, 
    1574, 
    1575, 
    1577, 
    1579, 
    1580, 
    1582, 
    1584, 
    1585, 
    1587, 
    1589, 
    1590, 
    1592, 
    1594, 
    1595, 
    1597, 
    1599, 
    1600, 
    1602, 
    1604, 
    1605, 
    1607, 
    1609, 
    1610, 
    1612, 
    1614, 
    1615, 
    1617, 
    1619, 
    1620, 
    1622, 
    1624, 
    1625, 
    1627, 
    1629, 
    1630, 
    1632, 
    1634, 
    1635, 
    1636, 
    1639, 
    1640, 
    1641, 
    1642, 
    1643, 
    1644, 
    1645, 
    1646, 
    1647, 
    1648, 
    1649, 
    1650, 
    1651, 
    1654, 
    1655, 
    1656, 
    1657, 
    1658, 
    1659, 
    1672, 
    1673, 
    1675, 
    1677, 
    1678, 
    1680, 
    1682, 
    1683, 
    1685, 
    1687, 
    1688, 
    1690, 
    1692, 
    1693, 
    1695, 
    1697, 
    1698, 
    1700, 
    1702, 
    1703, 
    1705, 
    1707, 
    1708, 
    1710, 
    1712, 
    1713, 
    1715, 
    1717, 
    1718, 
    1720, 
    1722, 
    1723, 
    1725, 
    1727, 
    1728, 
    1730, 
    1732, 
    1733, 
    1735, 
    1737, 
    1738, 
    1739, 
    1742, 
    1743, 
    1744, 
    1745, 
    1746, 
    1747, 
    1748, 
    1749, 
    1750, 
    1751, 
    1752, 
    1753, 
    1754, 
    1757, 
    1758, 
    1759, 
    1760, 
    1761, 
    1762, 
    1775, 
    1776, 
    1778, 
    1780, 
    1781, 
    1783, 
    1785, 
    1786, 
    1788, 
    1790, 
    1791, 
    1793, 
    1795, 
    1796, 
    1798, 
    1800, 
    1801, 
    1803, 
    1805, 
    1806, 
    1808, 
    1810, 
    1811, 
    1813, 
    1815, 
    1816, 
    1818, 
    1820, 
    1821, 
    1823, 
    1825, 
    1826, 
    1828, 
    1830, 
    1831, 
    1833, 
    1835, 
    1836, 
    1838, 
    1840, 
    1841, 
    1842, 
    1845, 
    1846, 
    1847, 
    1848, 
    1849, 
    1850, 
    1851, 
    1852, 
    1853, 
    1854, 
    1855, 
    1856, 
    1857, 
    1860, 
    1861, 
    1862, 
    1863, 
    1864, 
    1865, 
    1878, 
    1879, 
    1881, 
    1883, 
    1884, 
    1886, 
    1888, 
    1889, 
    1891, 
    1893, 
    1894, 
    1896, 
    1898, 
    1899, 
    1901, 
    1903, 
    1904, 
    1906, 
    1908, 
    1909, 
    1911, 
    1913, 
    1914, 
    1916, 
    1918, 
    1919, 
    1921, 
    1923, 
    1924, 
    1926, 
    1928, 
    1929, 
    1931, 
    1933, 
    1934, 
    1936, 
    1938, 
    1939, 
    1941, 
    1943, 
    1944, 
    1945, 
    1948, 
    1949, 
    1950, 
    1951, 
    1952, 
    1953, 
    1954, 
    1955, 
    1956, 
    1957, 
    1958, 
    1959, 
    1960, 
    1963, 
    1964, 
    1965, 
    1966, 
    1967, 
    1968, 
    1981, 
    1982, 
    1984, 
    1986, 
    1987, 
    1989, 
    1991, 
    1992, 
    1994, 
    1996, 
    1997, 
    1999, 
    2001, 
    2002, 
    2004, 
    2006, 
    2007, 
    2009, 
    2011, 
    2012, 
    2014, 
    2016, 
    2017, 
    2019, 
    2021, 
    2022, 
    2024, 
    2026, 
    2027, 
    2029, 
    2031, 
    2032, 
    2034, 
    2036, 
    2037, 
    2039, 
    2041, 
    2042, 
    2044, 
    2046, 
    2047, 
    2048, 
    2051, 
    2052, 
    2053, 
    2054, 
    2055, 
    2056, 
    2057, 
    2058, 
    2059, 
    2060, 
    2061, 
    2062, 
    2063, 
    2066, 
    2067, 
    2068, 
    2069, 
    2070, 
    2071, 
    2084, 
    2085, 
    2087, 
    2089, 
    2090, 
    2092, 
    2094, 
    2095, 
    2097, 
    2099, 
    2100, 
    2102, 
    2104, 
    2105, 
    2107, 
    2109, 
    2110, 
    2112, 
    2114, 
    2115, 
    2117, 
    2119, 
    2120, 
    2122, 
    2124, 
    2125, 
    2127, 
    2129, 
    2130, 
    2132, 
    2134, 
    2135, 
    2137, 
    2139, 
    2140, 
    2142, 
    2144, 
    2145, 
    2147, 
    2149, 
    2150, 
    2151, 
    2154, 
    2155, 
    2156, 
    2157, 
    2158, 
    2159, 
    2160, 
    2161, 
    2162, 
    2163, 
    2164, 
    2165, 
    2166, 
    2169, 
    2170, 
    2171, 
    2172, 
    2173, 
    2174, 
    2187, 
    2188, 
    2190, 
    2192, 
    2193, 
    2195, 
    2197, 
    2198, 
    2200, 
    2202, 
    2203, 
    2205, 
    2207, 
    2208, 
    2210, 
    2212, 
    2213, 
    2215, 
    2217, 
    2218, 
    2220, 
    2222, 
    2223, 
    2225, 
    2227, 
    2228, 
    2230, 
    2232, 
    2233, 
    2235, 
    2237, 
    2238, 
    2240, 
    2242, 
    2243, 
    2245, 
    2247, 
    2248, 
    2250, 
    2252, 
    2253, 
    2254, 
    2257, 
    2258, 
    2259, 
    2260, 
    2261, 
    2262, 
    2263, 
    2264, 
    2265, 
    2266, 
    2267, 
    2268, 
    2269, 
    2272, 
    2273, 
    2274, 
    2275, 
    2276, 
    2277, 
    2290, 
    2291, 
    2293, 
    2295, 
    2296, 
    2298, 
    2300, 
    2301, 
    2303, 
    2305, 
    2306, 
    2308, 
    2310, 
    2311, 
    2313, 
    2315, 
    2316, 
    2318, 
    2320, 
    2321, 
    2323, 
    2325, 
    2326, 
    2328, 
    2330, 
    2331, 
    2333, 
    2335, 
    2336, 
    2338, 
    2340, 
    2341, 
    2343, 
    2345, 
    2346, 
    2348, 
    2350, 
    2351, 
    2353, 
    2355, 
    2356, 
    2357, 
    2360, 
    2361, 
    2362, 
    2363, 
    2364, 
    2365, 
    2366, 
    2367, 
    2368, 
    2369, 
    2370, 
    2371, 
    2372, 
    2375, 
    2376, 
    2377, 
    2378, 
    2379, 
    2380, 
    2393, 
    2394, 
    2396, 
    2398, 
    2399, 
    2401, 
    2403, 
    2404, 
    2406, 
    2408, 
    2409, 
    2411, 
    2413, 
    2414, 
    2416, 
    2418, 
    2419, 
    2421, 
    2423, 
    2424, 
    2426, 
    2428, 
    2429, 
    2431, 
    2433, 
    2434, 
    2436, 
    2438, 
    2439, 
    2441, 
    2443, 
    2444, 
    2446, 
    2448, 
    2449, 
    2451, 
    2453, 
    2454, 
    2456, 
    2458, 
    2459, 
    2460, 
    2463, 
    2464, 
    2465, 
    2466, 
    2467, 
    2468, 
    2469, 
    2470, 
    2471, 
    2472, 
    2473, 
    2474, 
    2475, 
    2478, 
    2479, 
    2480, 
    2481, 
    2482, 
    2483, 
    2496, 
    2497, 
    2499, 
    2501, 
    2502, 
    2504, 
    2506, 
    2507, 
    2509, 
    2511, 
    2512, 
    2514, 
    2516, 
    2517, 
    2519, 
    2521, 
    2522, 
    2524, 
    2526, 
    2527, 
    2529, 
    2531, 
    2532, 
    2534, 
    2536, 
    2537, 
    2539, 
    2541, 
    2542, 
    2544, 
    2546, 
    2547, 
    2549, 
    2551, 
    2552, 
    2554, 
    2556, 
    2557, 
    2559, 
    2561, 
    2562, 
    2563, 
    2566, 
    2567, 
    2568, 
    2569, 
    2570, 
    2571, 
    2572, 
    2573, 
    2574, 
    2575, 
    2576, 
    2577, 
    2578, 
    2581, 
    2582, 
    2583, 
    2584, 
    2585, 
    2586, 
    2599, 
    2600, 
    2602, 
    2604, 
    2605, 
    2607, 
    2609, 
    2610, 
    2612, 
    2614, 
    2615, 
    2617, 
    2619, 
    2620, 
    2622, 
    2624, 
    2625, 
    2627, 
    2629, 
    2630, 
    2632, 
    2634, 
    2635, 
    2637, 
    2639, 
    2640, 
    2642, 
    2644, 
    2645, 
    2647, 
    2649, 
    2650, 
    2652, 
    2654, 
    2655, 
    2657, 
    2659, 
    2660, 
    2662, 
    2664, 
    2665, 
    2666, 
    2669, 
    2670, 
    2671, 
    2672, 
    2673, 
    2674, 
    2675, 
    2676, 
    2677, 
    2678, 
    2679, 
    2680, 
    2681, 
    2684, 
    2685, 
    2686, 
    2687, 
    2688, 
    2689, 
    2702, 
    2703, 
    2705, 
    2707, 
    2708, 
    2710, 
    2712, 
    2713, 
    2715, 
    2717, 
    2718, 
    2720, 
    2722, 
    2723, 
    2725, 
    2727, 
    2728, 
    2730, 
    2732, 
    2733, 
    2735, 
    2737, 
    2738, 
    2740, 
    2742, 
    2743, 
    2745, 
    2747, 
    2748, 
    2750, 
    2752, 
    2753, 
    2755, 
    2757, 
    2758, 
    2760, 
    2762, 
    2763, 
    2765, 
    2767, 
    2768, 
    2769, 
    2772, 
    2773, 
    2774, 
    2775, 
    2776, 
    2777, 
    2778, 
    2779, 
    2780, 
    2781, 
    2782, 
    2783, 
    2784, 
    2787, 
    2788, 
    2789, 
    2790, 
    2791, 
    2792, 
    2805, 
    2806, 
    2808, 
    2810, 
    2811, 
    2813, 
    2815, 
    2816, 
    2818, 
    2820, 
    2821, 
    2823, 
    2825, 
    2826, 
    2828, 
    2830, 
    2831, 
    2833, 
    2835, 
    2836, 
    2838, 
    2840, 
    2841, 
    2843, 
    2845, 
    2846, 
    2848, 
    2850, 
    2851, 
    2853, 
    2855, 
    2856, 
    2858, 
    2860, 
    2861, 
    2863, 
    2865, 
    2866, 
    2868, 
    2870, 
    2871, 
    2872, 
    2875, 
    2876, 
    2877, 
    2878, 
    2879, 
    2880, 
    2881, 
    2882, 
    2883, 
    2884, 
    2885, 
    2886, 
    2887, 
    2890, 
    2891, 
    2892, 
    2893, 
    2894, 
    2895, 
    2908, 
    2909, 
    2911, 
    2913, 
    2914, 
    2916, 
    2918, 
    2919, 
    2921, 
    2923, 
    2924, 
    2926, 
    2928, 
    2929, 
    2931, 
    2933, 
    2934, 
    2936, 
    2938, 
    2939, 
    2941, 
    2943, 
    2944, 
    2946, 
    2948, 
    2949, 
    2951, 
    2953, 
    2954, 
    2956, 
    2958, 
    2959, 
    2961, 
    2963, 
    2964, 
    2966, 
    2968, 
    2969, 
    2971, 
    2973, 
    2974, 
    2975, 
    2978, 
    2979, 
    2980, 
    2981, 
    2982, 
    2983, 
    2984, 
    2985, 
    2986, 
    2987, 
    2988, 
    2989, 
    2990, 
    2993, 
    2994, 
    2995, 
    2996, 
    2997, 
    2998, 
    3011, 
    3012, 
    3014, 
    3016, 
    3017, 
    3019, 
    3021, 
    3022, 
    3024, 
    3026, 
    3027, 
    3029, 
    3031, 
    3032, 
    3034, 
    3036, 
    3037, 
    3039, 
    3041, 
    3042, 
    3044, 
    3046, 
    3047, 
    3049, 
    3051, 
    3052, 
    3054, 
    3056, 
    3057, 
    3059, 
    3061, 
    3062, 
    3064, 
    3066, 
    3067, 
    3069, 
    3071, 
    3072, 
    3074, 
    3076, 
    3077, 
    3078, 
    3081, 
    3082, 
    3083, 
    3084, 
    3085, 
    3086, 
    3087, 
    3088, 
    3089, 
    3090, 
    3091, 
    3092, 
    3093, 
    3096, 
    3097, 
    3098, 
    3099, 
    3100, 
    3101, 
    3114, 
    3115, 
    3117, 
    3119, 
    3120, 
    3122, 
    3124, 
    3125, 
    3127, 
    3129, 
    3130, 
    3132, 
    3134, 
    3135, 
    3137, 
    3139, 
    3140, 
    3142, 
    3144, 
    3145, 
    3147, 
    3149, 
    3150, 
    3152, 
    3154, 
    3155, 
    3157, 
    3159, 
    3160, 
    3162, 
    3164, 
    3165, 
    3167, 
    3169, 
    3170, 
    3172, 
    3174, 
    3175, 
    3177, 
    3179, 
    3180, 
    3181, 
    3184, 
    3185, 
    3186, 
    3187, 
    3188, 
    3189, 
    3190, 
    3191, 
    3192, 
    3193, 
    3194, 
    3195, 
    3196, 
    3199, 
    3200, 
    3201, 
    3202, 
    3203, 
    3204, 
    3217, 
    3218, 
    3220, 
    3222, 
    3223, 
    3225, 
    3227, 
    3228, 
    3230, 
    3232, 
    3233, 
    3235, 
    3237, 
    3238, 
    3240, 
    3242, 
    3243, 
    3245, 
    3247, 
    3248, 
    3250, 
    3252, 
    3253, 
    3255, 
    3257, 
    3258, 
    3260, 
    3262, 
    3263, 
    3265, 
    3267, 
    3268, 
    3270, 
    3272, 
    3273, 
    3275, 
    3277, 
    3278, 
    3280, 
    3282, 
    3283, 
    3284, 
    3287, 
    3288, 
    3289, 
    3290, 
    3291, 
    3292, 
    3293, 
    3294, 
    3295, 
    3296, 
    3297, 
    3298, 
    3299, 
    3302, 
    3303, 
    3304, 
    3305, 
    3306, 
    3307, 
    3320, 
    3321, 
    3323, 
    3325, 
    3326, 
    3328, 
    3330, 
    3331, 
    3333, 
    3335, 
    3336, 
    3338, 
    3340, 
    3341, 
    3343, 
    3345, 
    3346, 
    3348, 
    3350, 
    3351, 
    3353, 
    3355, 
    3356, 
    3358, 
    3360, 
    3361, 
    3363, 
    3365, 
    3366, 
    3368, 
    3370, 
    3371, 
    3373, 
    3375, 
    3376, 
    3378, 
    3380, 
    3381, 
    3383, 
    3385, 
    3386, 
    3387, 
    3390, 
    3391, 
    3392, 
    3393, 
    3394, 
    3395, 
    3396, 
    3397, 
    3398, 
    3399, 
    3400, 
    3401, 
    3402, 
    3405, 
    3406, 
    3407, 
    3408, 
    3409, 
    3410, 
    3423, 
    3424, 
    3426, 
    3428, 
    3429, 
    3431, 
    3433, 
    3434, 
    3436, 
    3438, 
    3439, 
    3441, 
    3443, 
    3444, 
    3446, 
    3448, 
    3449, 
    3451, 
    3453, 
    3454, 
    3456, 
    3458, 
    3459, 
    3461, 
    3463, 
    3464, 
    3466, 
    3468, 
    3469, 
    3471, 
    3473, 
    3474, 
    3476, 
    3478, 
    3479, 
    3481, 
    3483, 
    3484, 
    3486, 
    3488, 
    3489, 
    3490, 
    3493, 
    3494, 
    3495, 
    3496, 
    3497, 
    3498, 
    3499, 
    3500, 
    3501, 
    3502, 
    3503, 
    3504, 
    3505, 
    3506, 
    3507, 
    3508, 
    3528, 
    3529, 
    3530, 
    3531, 
    3534, 
    3535, 
    3536, 
    3537, 
    3538, 
    3539, 
    3540, 
    3541, 
    3542, 
    3543, 
    3544, 
    3545, 
    3546, 
    3547, 
    3560, 
    3561, 
    3563, 
    3565, 
    3566, 
    3568, 
    3570, 
    3571, 
    3573, 
    3575, 
    3576, 
    3578, 
    3580, 
    3581, 
    3583, 
    3585, 
    3586, 
    3588, 
    3590, 
    3591, 
    3593, 
    3595, 
    3596, 
    3598, 
    3600, 
    3601, 
    3603, 
    3605, 
    3606, 
    3608, 
    3610, 
    3611, 
    3613, 
    3615, 
    3616, 
    3618, 
    3620, 
    3621, 
    3623, 
    3625, 
    3626, 
    3627, 
    3628, 
    3629, 
    3632, 
    3633, 
    3634, 
    3635, 
    3636, 
    3637, 
    3638, 
    3639, 
    3640, 
    3641, 
    3642, 
    3643, 
    3644, 
    3647, 
    3648, 
    3649, 
    3650, 
    3651, 
    3652, 
    3665, 
    3666, 
    3668, 
    3670, 
    3671, 
    3673, 
    3675, 
    3676, 
    3678, 
    3680, 
    3681, 
    3683, 
    3685, 
    3686, 
    3688, 
    3690, 
    3691, 
    3693, 
    3695, 
    3696, 
    3698, 
    3700, 
    3701, 
    3703, 
    3705, 
    3706, 
    3708, 
    3710, 
    3711, 
    3713, 
    3715, 
    3716, 
    3718, 
    3720, 
    3721, 
    3723, 
    3725, 
    3726, 
    3728, 
    3730, 
    3731, 
    3732, 
    3735, 
    3736, 
    3737, 
    3738, 
    3739, 
    3740, 
    3741, 
    3742, 
    3743, 
    3744, 
    3745, 
    3746, 
    3747, 
    3750, 
    3751, 
    3752, 
    3753, 
    3754, 
    3755, 
    3768, 
    3769, 
    3771, 
    3773, 
    3774, 
    3776, 
    3778, 
    3779, 
    3781, 
    3783, 
    3784, 
    3786, 
    3788, 
    3789, 
    3791, 
    3793, 
    3794, 
    3796, 
    3798, 
    3799, 
    3801, 
    3803, 
    3804, 
    3806, 
    3808, 
    3809, 
    3811, 
    3813, 
    3814, 
    3816, 
    3818, 
    3819, 
    3821, 
    3823, 
    3824, 
    3826, 
    3828, 
    3829, 
    3831, 
    3833, 
    3834, 
    3835, 
    3838, 
    3839, 
    3840, 
    3841, 
    3842, 
    3843, 
    3844, 
    3845, 
    3846, 
    3847, 
    3848, 
    3849, 
    3850, 
    3853, 
    3854, 
    3855, 
    3856, 
    3857, 
    3858, 
    3871, 
    3872, 
    3874, 
    3876, 
    3877, 
    3879, 
    3881, 
    3882, 
    3884, 
    3886, 
    3887, 
    3889, 
    3891, 
    3892, 
    3894, 
    3896, 
    3897, 
    3899, 
    3901, 
    3902, 
    3904, 
    3906, 
    3907, 
    3909, 
    3911, 
    3912, 
    3914, 
    3916, 
    3917, 
    3919, 
    3921, 
    3922, 
    3924, 
    3926, 
    3927, 
    3929, 
    3931, 
    3932, 
    3934, 
    3936, 
    3937, 
    3938, 
    3941, 
    3942, 
    3943, 
    3944, 
    3945, 
    3946, 
    3947, 
    3948, 
    3949, 
    3950, 
    3951, 
    3952, 
    3953, 
    3956, 
    3957, 
    3958, 
    3959, 
    3960, 
    3961, 
    3974, 
    3975, 
    3977, 
    3979, 
    3980, 
    3982, 
    3984, 
    3985, 
    3987, 
    3989, 
    3990, 
    3992, 
    3994, 
    3995, 
    3997, 
    3999, 
    4000, 
    4002, 
    4004, 
    4005, 
    4007, 
    4009, 
    4010, 
    4012, 
    4014, 
    4015, 
    4017, 
    4019, 
    4020, 
    4022, 
    4024, 
    4025, 
    4027, 
    4029, 
    4030, 
    4032, 
    4034, 
    4035, 
    4037, 
    4039, 
    4040, 
    4041, 
    4044, 
    4045, 
    4046, 
    4047, 
    4048, 
    4049, 
    4050, 
    4051, 
    4052, 
    4053, 
    4054, 
    4055, 
    4056, 
    4059, 
    4060, 
    4061, 
    4062, 
    4063, 
    4064, 
    4077, 
    4078, 
    4080, 
    4082, 
    4083, 
    4085, 
    4087, 
    4088, 
    4090, 
    4092, 
    4093, 
    4095, 
    4097, 
    4098, 
    4100, 
    4102, 
    4103, 
    4105, 
    4107, 
    4108, 
    4110, 
    4112, 
    4113, 
    4115, 
    4117, 
    4118, 
    4120, 
    4122, 
    4123, 
    4125, 
    4127, 
    4128, 
    4130, 
    4132, 
    4133, 
    4135, 
    4137, 
    4138, 
    4140, 
    4142, 
    4143, 
    4144, 
    4147, 
    4148, 
    4149, 
    4150, 
    4151, 
    4152, 
    4153, 
    4154, 
    4155, 
    4156, 
    4157, 
    4158, 
    4159, 
    4162, 
    4163, 
    4164, 
    4165, 
    4166, 
    4167, 
    4180, 
    4181, 
    4183, 
    4185, 
    4186, 
    4188, 
    4190, 
    4191, 
    4193, 
    4195, 
    4196, 
    4198, 
    4200, 
    4201, 
    4203, 
    4205, 
    4206, 
    4208, 
    4210, 
    4211, 
    4213, 
    4215, 
    4216, 
    4218, 
    4220, 
    4221, 
    4223, 
    4225, 
    4226, 
    4228, 
    4230, 
    4231, 
    4233, 
    4235, 
    4236, 
    4238, 
    4240, 
    4241, 
    4243, 
    4245, 
    4246, 
    4247, 
    4250, 
    4251, 
    4252, 
    4253, 
    4254, 
    4255, 
    4256, 
    4257, 
    4258, 
    4259, 
    4260, 
    4261, 
    4262, 
    4265, 
    4266, 
    4267, 
    4268, 
    4269, 
    4270, 
    4283, 
    4284, 
    4286, 
    4288, 
    4289, 
    4291, 
    4293, 
    4294, 
    4296, 
    4298, 
    4299, 
    4301, 
    4303, 
    4304, 
    4306, 
    4308, 
    4309, 
    4311, 
    4313, 
    4314, 
    4316, 
    4318, 
    4319, 
    4321, 
    4323, 
    4324, 
    4326, 
    4328, 
    4329, 
    4331, 
    4333, 
    4334, 
    4336, 
    4338, 
    4339, 
    4341, 
    4343, 
    4344, 
    4346, 
    4348, 
    4349, 
    4350, 
    4353, 
    4354, 
    4355, 
    4356, 
    4357, 
    4358, 
    4359, 
    4360, 
    4361, 
    4362, 
    4363, 
    4364, 
    4365, 
    4368, 
    4369, 
    4370, 
    4371, 
    4372, 
    4373, 
    4386, 
    4387, 
    4389, 
    4391, 
    4392, 
    4394, 
    4396, 
    4397, 
    4399, 
    4401, 
    4402, 
    4404, 
    4406, 
    4407, 
    4409, 
    4411, 
    4412, 
    4414, 
    4416, 
    4417, 
    4419, 
    4421, 
    4422, 
    4424, 
    4426, 
    4427, 
    4429, 
    4431, 
    4432, 
    4434, 
    4436, 
    4437, 
    4439, 
    4441, 
    4442, 
    4444, 
    4446, 
    4447, 
    4449, 
    4451, 
    4452, 
    4453, 
    4456, 
    4457, 
    4458, 
    4459, 
    4460, 
    4461, 
    4462, 
    4463, 
    4464, 
    4465, 
    4466, 
    4467, 
    4468, 
    4471, 
    4472, 
    4473, 
    4474, 
    4475, 
    4476, 
    4489, 
    4490, 
    4492, 
    4494, 
    4495, 
    4497, 
    4499, 
    4500, 
    4502, 
    4504, 
    4505, 
    4507, 
    4509, 
    4510, 
    4512, 
    4514, 
    4515, 
    4517, 
    4519, 
    4520, 
    4522, 
    4524, 
    4525, 
    4527, 
    4529, 
    4530, 
    4532, 
    4534, 
    4535, 
    4537, 
    4539, 
    4540, 
    4542, 
    4544, 
    4545, 
    4547, 
    4549, 
    4550, 
    4552, 
    4554, 
    4555, 
    4556, 
    4559, 
    4560, 
    4561, 
    4562, 
    4563, 
    4564, 
    4565, 
    4566, 
    4567, 
    4568, 
    4569, 
    4570, 
    4571, 
    4574, 
    4575, 
    4576, 
    4577, 
    4578, 
    4579, 
    4592, 
    4593, 
    4595, 
    4597, 
    4598, 
    4600, 
    4602, 
    4603, 
    4605, 
    4607, 
    4608, 
    4610, 
    4612, 
    4613, 
    4615, 
    4617, 
    4618, 
    4620, 
    4622, 
    4623, 
    4625, 
    4627, 
    4628, 
    4630, 
    4632, 
    4633, 
    4635, 
    4637, 
    4638, 
    4640, 
    4642, 
    4643, 
    4645, 
    4647, 
    4648, 
    4650, 
    4652, 
    4653, 
    4655, 
    4657, 
    4658, 
    4659, 
    4662, 
    4663, 
    4664, 
    4665, 
    4666, 
    4667, 
    4668, 
    4669, 
    4670, 
    4671, 
    4672, 
    4673, 
    4674, 
    4677, 
    4678, 
    4679, 
    4680, 
    4681, 
    4682, 
    4695, 
    4696, 
    4698, 
    4700, 
    4701, 
    4703, 
    4705, 
    4706, 
    4708, 
    4710, 
    4711, 
    4713, 
    4715, 
    4716, 
    4718, 
    4720, 
    4721, 
    4723, 
    4725, 
    4726, 
    4728, 
    4730, 
    4731, 
    4733, 
    4735, 
    4736, 
    4738, 
    4740, 
    4741, 
    4743, 
    4745, 
    4746, 
    4748, 
    4750, 
    4751, 
    4753, 
    4755, 
    4756, 
    4758, 
    4760, 
    4761, 
    4762, 
    4765, 
    4766, 
    4767, 
    4768, 
    4769, 
    4770, 
    4771, 
    4772, 
    4773, 
    4774, 
    4775, 
    4776, 
    4777, 
    4780, 
    4781, 
    4782, 
    4783, 
    4784, 
    4785, 
    4798, 
    4799, 
    4801, 
    4803, 
    4804, 
    4806, 
    4808, 
    4809, 
    4811, 
    4813, 
    4814, 
    4816, 
    4818, 
    4819, 
    4821, 
    4823, 
    4824, 
    4826, 
    4828, 
    4829, 
    4831, 
    4833, 
    4834, 
    4836, 
    4838, 
    4839, 
    4841, 
    4843, 
    4844, 
    4846, 
    4848, 
    4849, 
    4851, 
    4853, 
    4854, 
    4856, 
    4858, 
    4859, 
    4861, 
    4863, 
    4864, 
    4865, 
    4868, 
    4869, 
    4870, 
    4871, 
    4872, 
    4873, 
    4874, 
    4875, 
    4876, 
    4877, 
    4878, 
    4879, 
    4880, 
    4883, 
    4884, 
    4885, 
    4886, 
    4887, 
    4888, 
    4901, 
    4902, 
    4904, 
    4906, 
    4907, 
    4909, 
    4911, 
    4912, 
    4914, 
    4916, 
    4917, 
    4919, 
    4921, 
    4922, 
    4924, 
    4926, 
    4927, 
    4929, 
    4931, 
    4932, 
    4934, 
    4936, 
    4937, 
    4939, 
    4941, 
    4942, 
    4944, 
    4946, 
    4947, 
    4949, 
    4951, 
    4952, 
    4954, 
    4956, 
    4957, 
    4959, 
    4961, 
    4962, 
    4964, 
    4966, 
    4967, 
    4968, 
    4971, 
    4972, 
    4973, 
    4974, 
    4975, 
    4976, 
    4977, 
    4978, 
    4979, 
    4980, 
    4981, 
    4982, 
    4983, 
    4986, 
    4987, 
    4988, 
    4989, 
    4990, 
    4991, 
    5004, 
    5005, 
    5007, 
    5009, 
    5010, 
    5012, 
    5014, 
    5015, 
    5017, 
    5019, 
    5020, 
    5022, 
    5024, 
    5025, 
    5027, 
    5029, 
    5030, 
    5032, 
    5034, 
    5035, 
    5037, 
    5039, 
    5040, 
    5042, 
    5044, 
    5045, 
    5047, 
    5049, 
    5050, 
    5052, 
    5054, 
    5055, 
    5057, 
    5059, 
    5060, 
    5062, 
    5064, 
    5065, 
    5067, 
    5069, 
    5070, 
    5071, 
    5074, 
    5075, 
    5076, 
    5077, 
    5078, 
    5079, 
    5080, 
    5081, 
    5082, 
    5083, 
    5084, 
    5085, 
    5086, 
    5089, 
    5090, 
    5091, 
    5092, 
    5093, 
    5094, 
    5107, 
    5108, 
    5110, 
    5112, 
    5113, 
    5115, 
    5117, 
    5118, 
    5120, 
    5122, 
    5123, 
    5125, 
    5127, 
    5128, 
    5130, 
    5132, 
    5133, 
    5135, 
    5137, 
    5138, 
    5140, 
    5142, 
    5143, 
    5145, 
    5147, 
    5148, 
    5150, 
    5152, 
    5153, 
    5155, 
    5157, 
    5158, 
    5160, 
    5162, 
    5163, 
    5165, 
    5167, 
    5168, 
    5170, 
    5172, 
    5173, 
    5174, 
    5177, 
    5178, 
    5179, 
    5180, 
    5181, 
    5182, 
    5183, 
    5184, 
    5185, 
    5186, 
    5187, 
    5188, 
    5189, 
    5192, 
    5193, 
    5194, 
    5195, 
    5196, 
    5197, 
    5210, 
    5211, 
    5213, 
    5215, 
    5216, 
    5218, 
    5220, 
    5221, 
    5223, 
    5225, 
    5226, 
    5228, 
    5230, 
    5231, 
    5233, 
    5235, 
    5236, 
    5238, 
    5240, 
    5241, 
    5243, 
    5245, 
    5246, 
    5248, 
    5250, 
    5251, 
    5253, 
    5255, 
    5256, 
    5258, 
    5260, 
    5261, 
    5263, 
    5265, 
    5266, 
    5268, 
    5270, 
    5271, 
    5273, 
    5275, 
    5276, 
    5277, 
    5280, 
    5281, 
    5282, 
    5283, 
    5284, 
    5285, 
    5286, 
    5287, 
    5288, 
    5289, 
    5290, 
    5291, 
    5292, 
    5295, 
    5296, 
    5297, 
    5298, 
    5299, 
    5300, 
    5313, 
    5314, 
    5316, 
    5318, 
    5319, 
    5321, 
    5323, 
    5324, 
    5326, 
    5328, 
    5329, 
    5331, 
    5333, 
    5334, 
    5336, 
    5338, 
    5339, 
    5341, 
    5343, 
    5344, 
    5346, 
    5348, 
    5349, 
    5351, 
    5353, 
    5354, 
    5356, 
    5358, 
    5359, 
    5361, 
    5363, 
    5364, 
    5366, 
    5368, 
    5369, 
    5371, 
    5373, 
    5374, 
    5376, 
    5378, 
    5379, 
    5380, 
    5383, 
    5384, 
    5385, 
    5386, 
    5387, 
    5388, 
    5389, 
    5390, 
    5391, 
    5392, 
    5393, 
    5394, 
    5395, 
    5398, 
    5399, 
    5400, 
    5401, 
    5402, 
    5403, 
    5416, 
    5417, 
    5419, 
    5421, 
    5422, 
    5424, 
    5426, 
    5427, 
    5429, 
    5431, 
    5432, 
    5434, 
    5436, 
    5437, 
    5439, 
    5441, 
    5442, 
    5444, 
    5446, 
    5447, 
    5449, 
    5451, 
    5452, 
    5454, 
    5456, 
    5457, 
    5459, 
    5461, 
    5462, 
    5464, 
    5466, 
    5467, 
    5469, 
    5471, 
    5472, 
    5474, 
    5476, 
    5477, 
    5479, 
    5481, 
    5482, 
    5483, 
    5486, 
    5487, 
    5488, 
    5489, 
    5490, 
    5491, 
    5492, 
    5493, 
    5494, 
    5495, 
    5496, 
    5497, 
    5498, 
    5501, 
    5502, 
    5503, 
    5504, 
    5505, 
    5506, 
    5519, 
    5520, 
    5522, 
    5524, 
    5525, 
    5527, 
    5529, 
    5530, 
    5532, 
    5534, 
    5535, 
    5537, 
    5539, 
    5540, 
    5542, 
    5544, 
    5545, 
    5547, 
    5549, 
    5550, 
    5552, 
    5554, 
    5555, 
    5557, 
    5559, 
    5560, 
    5562, 
    5564, 
    5565, 
    5567, 
    5569, 
    5570, 
    5572, 
    5574, 
    5575, 
    5577, 
    5579, 
    5580, 
    5582, 
    5584, 
    5585, 
    5586, 
    5589, 
    5590, 
    5591, 
    5592, 
    5593, 
    5594, 
    5595, 
    5596, 
    5597, 
    5598, 
    5599, 
    5600, 
    5601, 
    5602, 
    5603, 
    5604, 
    5605, 
    5606, 
    5607, 
    5608, 
    5609, 
    5610, 
    5611, 
    5612
  ], 
  "heads": [[3333, 0, 0]], 
  "attrs": {"mxnet_version": ["int", 1201]}
}